app/src/main/assets/braille_recognition_model.tflite (tflite, 978916 bytes, 10 tensors)

arith.constant f4 [128]
000000 ed 25 d4 3b de 93 97 b9 88 7a 44 3c 26 09 09 3c
       0.0064742477 -0.00028911134 0.011992104 0.008363998
000010 55 bd 1e bd 84 44 6f bd 08 af 05 bd 31 06 7c 3b
       -0.03875478 -0.05841495 -0.032637626 0.0038455839
000020 43 11 de 3c 63 e3 11 bd 0d 1f a4 bb 7d e3 3a bc
       0.02710784 -0.035617243 -0.0050085844 -0.0114067765
000030 e6 3b bb 3c 4a 14 2a bd c8 53 3e 3c 7e 2e 1b 3d
       0.02285571 -0.041523255 0.011616655 0.037886135
000040 99 2b 98 bc 22 e9 0f bc 72 73 8b 3c 54 41 b5 bc
       -0.018575476 -0.008783611 0.017022822 -0.022125877
000050 5c 76 a8 3b 26 27 92 3b b2 d8 f9 bc ab 63 4f 3c
       0.0051410627 0.0044602333 -0.030498836 0.01265804
000060 d3 7a c7 bc 20 1c 18 3d f4 2d 95 3b e3 d7 72 bb
       -0.02435056 0.037136197 0.004552597 -0.0037054948
000070 e0 b9 ca bb 11 e0 82 3c ed de 6a 3d 10 f4 bf 3a
       -0.006186709 0.015975984 0.057341505 0.001464488
000080 7c 85 dd 3c b1 1c 72 3d fe 4c 1a bd d4 5b b8 3c
       0.02704119 0.059109394 -0.03767108 0.022504725
000090 26 54 c1 3c 0e 52 a9 bc 4a b9 83 3c 6e ef 59 bd
       0.023599695 -0.02066901 0.016079564 -0.053206854
0000a0 8f fb d2 3c 1c 7a 94 bc ee c1 f6 3c e9 84 18 3d
       0.025754718 -0.018124633 0.03012177 0.037236128
0000b0 6e 74 04 3d 1c d4 50 3d 69 3c f3 bc c4 57 5f bd
       0.0323376 0.050983533 -0.029691892 -0.05452706
0000c0 51 ac ae bc 4b 49 a2 3a 4f 62 96 bc 1a 7a 0b 3d
       -0.021322401 0.0012381462 -0.018357424 0.034051992
0000d0 b5 03 dd 3c 96 9f 0b 3c 87 e2 26 3c 4a 20 9b 3a
       0.026979307 0.008521935 0.010185844 0.0011835184
0000e0 86 5a 04 3d 32 fe 24 bc 48 26 92 bb ba f2 1e bd
       0.032312892 -0.0100703705 -0.00446013 -0.0388057
0000f0 e1 a0 30 bc 3b 3e 15 bc 5f 1d 90 3c 8a 2f 6c 3b
       -0.010780544 -0.009109075 0.01759213 0.0036039078
000100 ab d0 2b bc f2 bb 8f 3a 7b db 37 3c f4 66 08 bd
       -0.010486762 0.0010966046 0.011221762 -0.03330131
000110 e0 96 24 3c 04 d9 99 3a 5b 51 11 bc 18 b8 e2 bc
       0.010045737 0.0011737649 -0.008869494 -0.027675673
000120 66 e5 09 bc a1 15 cb 3b bd b4 1f bc ea aa d1 bc
       -0.008416509 0.0061976467 -0.009747681 -0.025594193
000130 45 fd c7 3b 75 56 f3 ba 92 18 55 3d ed b7 8a bc
       0.00610319 -0.0018565195 0.052025385 -0.016933406
000140 4a 10 1c bb 2e a9 3d 3c 2f 17 ad 3c 19 39 f0 3c
       -0.002381342 0.01157598 0.021129219 0.029324101
000150 b7 62 56 bc 49 4f 4c bd 5a b8 10 3d 1a ea 65 bc
       -0.013085059 -0.0498803 0.03533206 -0.014032865
000160 f6 ce ca bb 1d 7f 03 bd 9f 1d f0 3b 82 99 8f bc
       -0.0061892224 -0.032103647 0.00732775 -0.017529253
000170 44 62 56 3c 79 50 c7 3c ad 2c 0a bc 16 be 8d 3b
       0.013084952 0.024330365 -0.008433503 0.0043256385
000180 b9 71 79 bb b9 7a e3 3b 6c aa 7b 3c 81 eb cb 3c
       -0.0038062169 0.00694212 0.015360456 0.02489257
000190 cc 5b 32 3c a9 b4 45 bc f4 48 1b bd 72 ed e6 bc
       0.010886144 -0.0120669985 -0.03791137 -0.028189395
0001a0 7c 9b b1 3c 83 e5 d5 3c cf 18 0e 3d 8d 67 51 bd
       0.021680586 0.026110416 0.034691628 -0.051124144
0001b0 bc 73 ad bc 24 53 c1 bc f7 43 11 3d 89 6d 9a 3c
       -0.02117335 -0.023599215 0.035465207 0.018851059
0001c0 a9 f6 bd 3c bf d8 0c 3d f7 de de bb 6a fd 3f bb
       0.023188906 0.034386393 -0.006801482 -0.0029295334
0001d0 cf 89 a4 bc f7 c5 db 38 aa 1c 06 3d 85 85 d8 3b
       -0.020085244 0.000104796076 0.03274218 0.0066077136
0001e0 3b 44 87 3d 17 8f 35 37 92 0d 62 bd 69 40 07 3c
       0.06604811 1.0821756e-05 -0.055188723 0.008255103
0001f0 75 d2 00 bb 42 d9 58 3c b8 e4 18 3c 29 b1 c2 3b
       -0.0019656692 0.013235392 0.009331875 0.0059415293

arith.constant1 f4 [128]
000000 af 54 11 bd af 60 f4 bb eb 0c 0f bc 1f 3c db bc
       -0.03548115 -0.0074578146 -0.008731107 -0.026762066
000010 64 02 84 bc 21 10 cf bb 1e 77 dd bb 5c a7 02 bc
       -0.016114421 -0.0063190614 -0.0067585846 -0.007974472
000020 fc d0 31 bc 5c e1 4c bc e8 fc d8 bb 8d 3b 90 bb
       -0.010853048 -0.012504902 -0.0066219456 -0.0044016303
000030 90 dd 51 bb 0a 33 b6 3b 41 f2 c7 bc b8 1e 03 3d
       -0.003202293 0.0055602835 -0.024407508 0.032011718
000040 4d 44 af 3c bc c8 2a bd 82 ed 51 3c a2 27 b0 bb
       0.021394873 -0.04169534 0.012812974 -0.0053758183
000050 9e 53 90 3d 38 2d 26 bd ad 77 31 bc c5 cc 99 3d
       0.07047199 -0.040570468 -0.010831756 0.0750976
000060 b4 05 f0 bc 07 56 21 bd 6b 7e dd bc a6 2d 84 bb
       -0.029299594 -0.039388683 -0.02703782 -0.004033762
000070 e1 46 1b 3c 39 24 52 3d 38 7c 5a 3c 58 39 f6 bc
       0.009477348 0.051304076 0.01333528 -0.03005664
000080 d6 45 03 bc 95 02 99 3d 75 35 0e bc d8 97 28 bb
       -0.008012256 0.074711956 -0.008679737 -0.0025725272
000090 08 00 fd bb 6c 28 4b bc bc e2 90 bc ec fb c6 bb
       -0.007720951 -0.012399774 -0.01768624 -0.006072512
0000a0 9c 6f 95 3d 5f dd 1d bc ad 11 db bb 7e c9 20 bd
       0.072966784 -0.0096352985 -0.0066854567 -0.039254658
0000b0 60 c0 8e bc d1 85 05 bc 96 28 b4 bc fd bd c4 bb
       -0.017425716 -0.00814958 -0.02199201 -0.0060040937
0000c0 a5 6d d5 bb ee ce fd 3a 59 51 4d 3d ea 59 e8 bc
       -0.006513315 0.0019364038 0.050126407 -0.028363187
0000d0 51 52 11 bc e9 6f b2 3b a2 3b 87 bc 3d b1 4f 3b
       -0.008869723 0.0054454696 -0.016507927 0.0031691336
0000e0 a5 e0 18 bd 30 9c 35 bc 12 22 0a bd 91 73 d6 3c
       -0.037323613 -0.011084601 -0.0337239 0.026178153
0000f0 fe 9c 88 ba ea f6 f1 bb 4a 61 9d bc bc a2 25 bc
       -0.0010422764 -0.007384171 -0.01921143 -0.0101096
000100 99 dd 03 bc ab 52 41 bc 4d 19 30 bc c2 23 c6 bb
       -0.0080484385 -0.011799495 -0.01074822 -0.006046743
000110 0b 9c 65 3a 7b f8 9a 3c 7d f8 24 bc b1 57 5a 3c
       0.0008758909 0.018917313 -0.01006901 0.013326571
000120 d1 98 e7 bb c5 2b ca bb a4 6c 08 bc d8 db 01 bc
       -0.0070677777 -0.0061697685 -0.008326683 -0.00792595
000130 27 ef e4 3b fa aa 27 bc d3 50 8e 3d 41 03 d7 bb
       0.006986517 -0.010233635 0.0694901 -0.006561667
000140 ed 77 ed bb af 8f d7 bb 2c eb 0a 3d 76 d5 a9 bb
       -0.0072469623 -0.0065784077 0.033915684 -0.005182917
000150 cd 45 55 3d b2 ae d3 bb 5e 96 2f bd 93 c5 52 bc
       0.05206852 -0.0064600343 -0.04286801 -0.012864488
000160 11 2c 93 3c bf 31 c3 39 6b b5 f7 bb 07 28 bd 3d
       0.017965348 0.00037230362 -0.0075594685 0.0923615
000170 ed 54 c6 3c b8 fa 55 bc 24 42 bf 3c bf c4 a3 bd
       0.024210418 -0.013060264 0.023346968 -0.07996511
000180 e4 b1 3f 3d 10 a7 2c bd cd ce 05 bc 3a ad 13 bc
       0.04680051 -0.04215151 -0.008166981 -0.009013468
000190 a5 e8 94 3d 54 9a 69 bd 3a 61 f5 bc e1 4f 76 bc
       0.07270936 -0.057031944 -0.029953588 -0.015033693
0001a0 53 86 53 bc a4 a1 16 bd 6f 30 ad 3c 2b e1 03 bc
       -0.012910443 -0.036775246 0.021141259 -0.00804929
0001b0 5d c5 16 bc ef 46 ae bc 5d da a1 3a a6 4d 94 bc
       -0.0092023285 -0.021274058 0.0012348403 -0.018103432
0001c0 1d ae 0a 3d fc 68 d1 bc bd 42 92 bb 9a 3c b3 bb
       0.033857454 -0.025562756 -0.004463522 -0.0054698708
0001d0 0d d2 ad 3d 87 0c 51 b9 2f 3a 97 bc d4 a5 ba bb
       0.0848733 -0.0001993646 -0.018460361 -0.005696038
0001e0 59 10 15 bc 1b c5 f3 3c ef d2 22 bc 88 08 3c 3c
       -0.009098136 0.029757073 -0.009937986 0.011476643
0001f0 96 4e 43 bd 00 93 80 3a a8 3f 51 3d f1 9d e4 bc
       -0.047682367 0.0009809434 0.051086098 -0.027907344

arith.constant2 f4 [64]
000000 6c fd cc bc af 2a 1e bd be 79 31 bd 40 4b fc bc
       -0.025023185 -0.038614925 -0.043328993 -0.0307976
000010 4f f0 26 3c 79 3a 62 bc 1d 84 d2 bc 75 46 b1 3d
       0.01018913 -0.013807886 -0.025697762 0.08656017
000020 7b 5b 6a bc 01 9c 70 3d 3c 99 ae 3d bf da 3e bd
       -0.014304037 0.058742527 0.08525321 -0.04659533
000030 22 ac ba bb 1e 17 10 bc 13 d2 46 3d b3 76 09 3e
       -0.0056967894 -0.008794574 0.048540186 0.13424186
000040 2b 1f 01 3c 5e 12 59 bd 02 17 54 bd 8e 37 b1 bc
       0.007880966 -0.052996032 -0.051779754 -0.021632936
000050 8e dd 96 3d 3a 86 11 bc e7 81 ad 3d 82 c5 81 bd
       0.07366477 -0.0088821 0.084720425 -0.063365
000060 01 40 db bc 74 54 f9 bc f9 48 4e bd 7c fd 5f b8
       -0.026763918 -0.030435778 -0.05036256 -5.340342e-05
000070 c4 fc 1b bd c6 b7 37 bd 37 6c 21 bd f2 f2 27 bd
       -0.038082853 -0.044852994 -0.039409842 -0.041003175
000080 b0 48 30 bd f1 0c 57 bd 16 15 1b bd 73 01 89 3b
       -0.04303807 -0.052502576 -0.037861906 0.004181081
000090 02 51 9e 3e bc d7 ff bc 78 09 4d bb 76 64 03 3e
       0.3092118 -0.0312308 -0.0031286161 0.12831292
0000a0 4e 17 7d 3d fa f6 22 bd 7c 9e b7 bb d1 bb 80 bd
       0.061789803 -0.039786316 -0.0056036096 -0.06285823
0000b0 ce 37 13 bc f4 64 50 bd b8 bb 33 bd e2 0f 0e bd
       -0.008985473 -0.050877526 -0.043880194 -0.034683116
0000c0 a1 6f 2c bd bc 35 57 3d f5 31 09 bc 4d b9 03 bd
       -0.042098645 0.05254148 -0.008373727 -0.03215914
0000d0 1d d1 78 bd 1f 45 94 3d ad b9 09 3d b1 42 0a 3a
       -0.0607463 0.07239746 0.03362434 0.000527422
0000e0 4f e7 72 3e a2 3c 1b bd 4c 71 05 bd ff 61 ed bb
       0.2372105 -0.03789962 -0.03257875 -0.007244348
0000f0 84 06 37 bc c4 91 bf bc ac 6d 8e bc a5 06 52 bd
       -0.011170987 -0.023384936 -0.01738628 -0.051275868

arith.constant3 f4 [26]
000000 42 16 ad 3c 8a 3c 91 3c fa 53 e8 ba 84 10 e4 bc
       0.021128777 0.017729063 -0.0017725222 -0.027839907
000010 c8 23 2e 3d 0e b8 32 bc d2 a4 37 bd be f9 b3 3c
       0.042514592 -0.01090814 -0.04483492 0.021969672
000020 da 6d e2 3c 95 a8 04 3c 29 ae 8a 3c 93 02 ec bb
       0.027640272 0.008096834 0.01692875 -0.0072024553
000030 b5 6d ad 3c f0 19 85 bc f1 a1 11 3d 95 a3 ab bb
       0.021170476 -0.01624772 0.03555483 -0.0052380064
000040 c8 98 13 bc b2 75 79 ba a1 47 31 3b 8e d1 ed bc
       -0.009008594 -0.0009516134 0.002705075 -0.029030588
000050 54 b4 d5 3b 8d ff cf bb ab 75 4e bd a1 c9 ed bc
       0.006521741 -0.0063476027 -0.050405186 -0.029026808
000060 e4 91 c0 bc 17 11 06 3c
       -0.023507066 0.0081827855

arith.constant4 f4 [64, 3, 3, 32]
000000 bf 4b c9 3b f0 d6 a6 bd 68 91 8f bd 6f bc ca 3b
       0.006143063 -0.08146465 -0.07010156 0.006187014
000010 3f 2a 51 3d a7 0b 6f 3d 1b 24 d2 bd 3b 59 e9 3c
       0.05106568 0.058360722 -0.10260793 0.028484931
000020 d7 f1 5e bd 88 19 73 bd d5 f2 b7 bd 78 66 37 3c
       -0.054429855 -0.05935052 -0.089818634 0.011193864
000030 61 52 c7 bd 32 7f 20 3d 73 56 25 3d 27 39 88 bc
       -0.097325094 0.039183803 0.040365648 -0.016628815
000040 c5 74 45 bd a3 03 4f bd 03 07 93 3c 76 e6 18 bc
       -0.048207063 -0.050540578 0.01794768 -0.00933229
000050 a1 fb 7c 3d 1c d1 6a 3d eb df a4 bd 08 5a 53 bd
       0.06176341 0.05732833 -0.080505215 -0.051599532
000060 f9 9e e0 bd 61 b1 d4 bc 2e 36 5b bd 14 24 84 bd
       -0.10967822 -0.025963487 -0.053518467 -0.06452194
000070 dd 25 d6 3c 4a 35 98 bd 9e b4 30 bd 12 50 90 ba
       0.026141101 -0.07432039 -0.043141 -0.0011010191
000080 29 89 04 3d 42 d3 a4 bc ba 28 67 3d 97 47 46 bd
       0.03235737 -0.020120267 0.056435324 -0.048408117
000090 59 11 3c bd ef 37 8a bd 76 ab d8 3c 83 6c 17 bd
       -0.04591498 -0.0674895 0.026448946 -0.03696872
0000a0 6c e0 56 bb 41 ea 2b bb ae e6 23 bc b1 bd a4 3c
       -0.0032787574 -0.0026232156 -0.010003729 0.020109983
0000b0 5d f0 b6 bd f9 a2 1c bd 72 c0 98 bc 2a b5 8d 3c
       -0.089325644 -0.03824136 -0.018646453 0.0172983
0000c0 34 f5 2e 3c 40 98 50 bd 2e a6 89 3c 1c 47 90 bd
       0.010678578 -0.050926447 0.016802873 -0.07044813
0000d0 20 7f e4 bd 14 73 f5 bc 55 23 dd bd 8d 30 dc bd
       -0.1115706 -0.0299621 -0.10797755 -0.10751448
0000e0 18 58 07 be 8b 8b 8d bb 04 0f fe bd 67 82 cc bd
       -0.13217199 -0.0043196133 -0.12405208 -0.0998581
0000f0 d6 1c bd bd 89 61 0d 3d 5d ed 88 3d 1a ec 0d 3d
       -0.09234016 0.034516845 0.066858985 0.034648992
000100 1c ad 61 3d dd 6d 1d bc 00 84 f6 3a 76 73 85 bc
       0.05509673 -0.009608713 0.001880765 -0.016290408
000110 cf c6 dd bb 03 2d f5 bd 3f 2f 28 3d b5 13 e4 bc
       -0.0067680846 -0.11971476 0.041060682 -0.027841428
000120 b3 e0 32 3d 33 f8 98 bc 97 1c 82 bc 29 d1 77 3b
       0.04367132 -0.018673038 -0.015882773 0.0037813878
000130 0e 93 3e 3c 7c 08 3c bd 22 82 6c bd f6 df 0c bd
       0.01163174 -0.04590653 -0.05774129 -0.034393273
000140 b4 96 00 3d 4c 0a 23 bd 71 34 8d 3d 68 22 b7 bd
       0.03139372 -0.03980474 0.06894768 -0.08942109
000150 97 e2 ab bd 05 97 17 bd d8 ad f9 3c 76 e3 d7 bd
       -0.08392828 -0.037009258 0.030478403 -0.105414316
000160 83 c0 23 bd 6f ef b8 bc 38 f4 19 be 26 21 84 bd
       -0.039978515 -0.022575108 -0.15034568 -0.06451635
000170 90 28 9c bd eb 80 81 bd 06 dc a8 bd 39 54 9d bd
       -0.07624924 -0.06323417 -0.08245091 -0.0768208
000180 22 1b de 3c 20 aa 9e bd b0 98 8e bb 31 45 81 bd
       0.027112547 -0.077472925 -0.004351698 -0.06312025
000190 76 27 64 3d 2e 3c a5 bc ad c0 51 bd bf f1 bf 3c
       0.055701695 -0.020170297 -0.05120914 0.023430703
0001a0 c3 26 33 bd d2 6b 96 bd 4b 8b 8a 3c 46 ed b4 bd
       -0.043738138 -0.07344784 0.016912123 -0.08834319
0001b0 3a e8 7c 3c bf 4d dc bd ad 3a d0 bd 25 dd 78 3d
       0.0154362265 -0.107570164 -0.101674415 0.060757775
0001c0 c2 34 c0 bd 0c ee eb 3c b0 d7 55 3d 74 3a 83 bc
       -0.09385063 0.028800033 0.05220765 -0.016019084
0001d0 c5 9c 67 bd d6 cb 1c 3d f5 3e a7 3c ea 04 45 3d
       -0.05654599 0.03828033 0.020415762 0.04810039
0001e0 2b c1 2d 3d 16 76 82 3d e0 52 32 3b d1 6e 28 bd
       0.042420547 0.06370179 0.0027210042 -0.041121308
0001f0 2e a6 37 3d ce 09 81 bd 63 c2 96 3d 0e 3d 48 3d
       0.044836216 -0.06300698 0.07361295 0.04888635
000200 f3 0a 21 3d 02 1c 2b bc fa aa 3b 3d 4b 8a f9 bd
       0.039317083 -0.010443689 0.045817353 -0.121845804
000210 03 2b 91 bc 7a 36 55 bc 35 c9 a7 bd 66 bb c3 bd
       -0.017720705 -0.0130134765 -0.08192674 -0.09557228
000220 31 2a a6 bd ab e1 97 3c 83 5d 93 bd c1 1e fb 3c
       -0.08113516 0.018540224 -0.0719557 0.030654313
000230 94 24 85 bd 9e 47 93 bc 6f b7 8c 3c cb 0e 60 3d
       -0.06501117 -0.017978486 0.017177312 0.054701608
000240 1d a0 54 bd 34 a9 a2 3c d5 d6 26 3d 36 5f c3 bd
       -0.05191051 0.019856073 0.040732224 -0.095396444
000250 47 7b 2d bd 61 cd 06 3d 6a f7 16 3c 2a e3 77 3b
       -0.042353895 0.03291071 0.009214262 0.003782461
000260 f3 56 1d 3d a9 5b 73 bd 72 44 0e be 6a 61 65 bd
       0.038413 -0.059413586 -0.13893297 -0.056001104
000270 34 6d 68 bd 08 2b 31 3d 94 19 99 bc 97 26 8b 3c
       -0.05674477 0.04325393 -0.018688954 0.016986175
000280 d6 aa 2a 3b b6 bd 9f 3c 60 eb 17 3d 9b 85 ca bd
       0.0026041768 0.01949964 0.037089705 -0.098887645
000290 4a 29 d9 bc 22 c3 3c 3c 2a eb 88 3c 80 e9 62 bd
       -0.026508946 0.011521133 0.016713697 -0.055398464
0002a0 b2 6a 35 3c a0 44 46 3c 73 be c2 bd 78 30 3a bd
       0.011072801 0.012101322 -0.095089816 -0.04545638
0002b0 c1 e1 a9 bd 81 c2 70 bd cf 85 01 bc 00 4e 04 3d
       -0.08295012 -0.058779243 -0.007905438 0.03230095
0002c0 0e 3b 8d 3d d1 96 7b 3d 95 3d 0a bd 53 ba 18 bd
       0.068960294 0.061423127 -0.033750135 -0.037287068
0002d0 77 c5 ee 3c 37 08 69 bd ee c9 b0 bb ca 15 a9 bc
       0.029146893 -0.0568926 -0.0053951656 -0.020640273
0002e0 be fc c4 bd d2 e7 cb bc 89 01 fa bb 06 46 27 3d
       -0.09618519 -0.024890814 -0.0076295775 0.040838264
0002f0 df d7 df 3c 9a 20 e4 bc 75 5d 9b 3d 61 43 6d bc
       0.027324615 -0.027847577 0.07586185 -0.014481396
000300 4e a0 0b bd b6 ae 9c bd 56 03 7b bd 52 a5 5c 3d
       -0.034088425 -0.07650511 -0.06128248 0.0538686
000310 48 80 c5 bb a1 e4 eb bd 35 53 85 3d 99 c3 7a bd
       -0.006027255 -0.11518217 0.06510011 -0.061221693
000320 88 9d dc 3c 17 cd 06 bc 6f 5d a6 bc ee 3a 20 bd
       0.026930586 -0.008227608 -0.020308224 -0.0391187
000330 41 70 04 bd 78 44 80 bd bf 70 99 bd f0 79 97 bd
       -0.032333616 -0.062630594 -0.07492208 -0.073963046
000340 f2 87 65 3a 34 29 f3 bc 61 7e 3b bd 4f 40 17 3d
       0.0008755914 -0.029682733 -0.04577482 0.036926564
000350 6a 37 94 bd 50 f4 14 bd af 7e ad bd fa d9 1d 3d
       -0.07237132 -0.036365807 -0.084714286 0.038537957
000360 31 ff 90 bd 80 e6 03 bd 86 3f cd bb bc c4 71 3d
       -0.07079924 -0.032202244 -0.006263676 0.05902551
000370 7d d1 bf 3b 3c fd a1 bc 7e f8 8a 3d 28 a3 25 3d
       0.0058538304 -0.019774072 0.067856774 0.0404388
000380 ae 38 ba bd 9c b2 8d 3d a6 b2 52 3d d2 7d 32 bd
       -0.09092842 0.06918833 0.051439904 -0.043577023
000390 61 90 80 bd da 3c d1 bd dd cc 70 ba df 7b e6 3c
       -0.06277538 -0.10216685 -0.00091858004 0.028135238
0003a0 e6 16 9a bd b1 08 07 3d 7a 4a 0d bc 84 7a da ba
       -0.07523899 0.032967273 -0.008623714 -0.0016668593
0003b0 22 63 d2 bd e9 b2 6c bd 95 bd 85 bd 78 65 2b 3c
       -0.10272814 -0.05778781 -0.065303005 0.010461204
0003c0 f3 23 1c 3d 5e e1 c2 3a bf d1 03 bd 78 8d 2d bd
       0.03812022 0.001486819 -0.03218245 -0.042371243
0003d0 51 8c c3 3c 77 f5 c7 bb 27 28 96 bd 9b f3 26 bd
       0.023870619 -0.0061022597 -0.07331877 -0.040759664
0003e0 58 d4 18 3d d1 3e e5 bd 77 61 63 3d e1 cf 2c bd
       0.03731188 -0.11193622 0.05551287 -0.042190436
0003f0 30 c1 25 3d d8 41 34 bd 0a c7 19 3d 0a 71 d1 3c
       0.04046744 -0.044008106 0.037543334 0.025566597

arith.constant5 f4 [26, 128]
000000 bc ca 1e be 62 d5 87 bd 6e 0c 46 3d 5c 1b 91 3e
       -0.15507025 -0.066324964 0.048351698 0.28341186
000010 ca 60 4f be cd d1 98 be b9 f1 3a be 4b 16 ae bb
       -0.20251766 -0.29847565 -0.18256272 -0.005312716
000020 80 16 1f 3d b4 90 31 be 1c d8 4f 3e 16 fa e4 3d
       0.038839817 -0.17340356 0.20297283 0.111805126
000030 72 2f b6 bc 7b f2 44 be cc 9b 49 3d 8b 71 0b bd
       -0.02223942 -0.19233124 0.049220845 -0.03404383
000040 56 33 f3 bc 4b 6c 28 3d 93 86 7a bc 81 f0 e5 bd
       -0.029687565 0.0411189 -0.015290874 -0.11227513
000050 dd 9e 42 3e 1f 59 db bc 01 ab ed bd 85 74 25 3e
       0.19005914 -0.026775895 -0.11604882 0.1615773
000060 1f 6e 54 3e db a3 ea be d5 92 15 3e 8a 27 12 be
       0.20745133 -0.45828137 0.14606793 -0.14272895
000070 ef 42 f0 bc d5 65 ce 3d 32 74 5c 3e 8f 79 1d 3e
       -0.029328791 0.10078017 0.215287 0.15378402
000080 0a fb 58 3e fa 71 84 be 9a 74 14 3d 9f 81 01 be
       0.21189514 -0.25868207 0.036244012 -0.12647103
000090 3b 3e cc bd 92 fd 21 be 55 29 50 bd d1 9b 84 3d
       -0.09972807 -0.15819386 -0.050820667 0.06475032
0000a0 a9 46 8c 3d 31 a6 15 be eb a5 59 3d 89 46 ce 3d
       0.06849415 -0.14614178 0.053136747 0.10072047
0000b0 9c 00 99 3d 5c 73 0d 3e a5 42 7c 3d 9b d4 6f be
       0.07470819 0.13813537 0.061586995 -0.23420946
0000c0 95 05 55 3d ac e7 10 3e d9 59 04 3e be 36 e8 3d
       0.052007277 0.14150876 0.12924899 0.11338566
0000d0 51 f7 c5 3d f7 a5 32 3e b7 17 16 be 55 c7 81 be
       0.096663125 0.17446123 -0.14657484 -0.2534739
0000e0 da 07 71 3e 51 e8 78 be ff 26 d8 bd 19 c3 37 be
       0.23538151 -0.24307372 -0.10554313 -0.17945518
0000f0 5b da 0b 3e 5e 58 01 be 81 e3 03 bc b8 29 a6 bd
       0.13657515 -0.12631366 -0.008049847 -0.08113426
000100 e7 d8 92 3d 4c 5d 0b be c1 ea 50 3d ce 46 d2 3d
       0.07170277 -0.13609809 0.05100513 0.10267411
000110 18 42 75 bb 00 04 68 be 51 6d bc 3d b8 90 87 be
       -0.0037423428 -0.22657776 0.09200538 -0.264776
000120 de 02 55 be 06 06 36 bd d2 8c 79 be 52 e5 b7 be
       -0.20801875 -0.04443934 -0.24370125 -0.35917145
000130 5f d5 ab bd b4 f4 63 3d 10 54 2b be 4e 82 0b be
       -0.08390307 0.05565329 -0.16731286 -0.13623926
000140 de d3 48 3e 9a ff d8 bd 16 09 7b bd 61 18 4e bd
       0.19612071 -0.10595627 -0.061287962 -0.05031622
000150 f1 c6 33 bb 41 e1 8e bd 88 e2 70 be 3f ba 4c 3e
       -0.002743181 -0.069765575 -0.23523915 0.19992922
000160 93 dd 33 be f5 5f b7 be bf 3a b4 be 3d 3a 9d 3e
       -0.17564993 -0.35815397 -0.3520107 0.30708495
000170 68 bf ab 3c 8c fd 3e 3e 99 06 41 be 9d c9 87 be
       0.020965293 0.18651408 -0.18850173 -0.26521006
000180 ac ab c3 bd ae 44 7a 3e 85 f8 b5 bc f7 3d a8 3c
       -0.09554228 0.24440262 -0.02221323 0.02053736
000190 6a 27 06 3d 56 4e 03 bf ff 5d 88 be 09 b6 1c bd
       0.032752432 -0.51291406 -0.26634213 -0.03825954
0001a0 57 4a 23 3e b5 ee a0 3d b9 69 06 bd 0e 3e 38 bc
       0.15946327 0.0785803 -0.03281567 -0.011245264
0001b0 ed 9f e5 3d c6 da f3 be e7 f9 e5 bc 03 76 ee bd
       0.11212144 -0.47627848 -0.028073264 -0.11643603
0001c0 7a d7 71 3e 2a f4 be 3c 7b 71 19 be f1 49 fc bd
       0.23617354 0.023309786 -0.14984696 -0.12318791
0001d0 1d fc be be c2 67 ec bd 69 27 75 be c7 d1 e3 3d
       -0.37301722 -0.11543228 -0.23940815 0.11123996
0001e0 71 1d 02 be 28 f5 73 be 46 3e 36 be db e5 cb 3d
       -0.12706544 -0.23823988 -0.17797193 0.09955951
0001f0 3e 1d 2f bd 85 aa 96 3c 67 f6 83 be 6c b0 a8 3d
       -0.042752497 0.018391857 -0.25773928 0.08236775
000200 43 80 62 be 3b 50 19 bd c0 6f bc be c7 57 7c 3e
       -0.2211924 -0.03743003 -0.36804008 0.2464286
000210 20 d5 30 3e 5a 62 c4 bc 19 c3 31 be b2 57 e6 be
       0.172688 -0.023972679 -0.1735958 -0.4498878
000220 26 a9 ea 3d 07 a5 fb bd 7f 0b 94 3d 8a af 52 be
       0.11458044 -0.12287336 0.07228755 -0.20574775
000230 b9 a5 2e 3e f6 4a 3d bd 41 71 5f be 24 d0 c3 3d
       0.17055406 -0.046214066 -0.21820547 0.09561184
000240 0c a5 0c 3c 0a 4e 00 be b1 9b 82 bc a0 d8 fe 3d
       0.008584272 -0.1252977 -0.01594338 0.12443662
000250 e9 90 c5 be e6 f3 47 3c 16 1c a7 be 03 a6 4b 3e
       -0.3858712 0.012204146 -0.32638615 0.19887547
000260 17 b3 51 bd 60 a7 4b bd 88 3d a8 3d 67 40 98 3d
       -0.051196184 -0.049720168 0.08214861 0.07434159
000270 0a 0b f9 bc 61 40 eb bd 79 e7 2f bd ca 45 16 3e
       -0.030400772 -0.11486889 -0.04294536 0.1467506
000280 41 2c f0 3d 10 7b e6 3d 19 59 76 bc b0 16 1e be
       0.11727191 0.11253941 -0.015035891 -0.15438342
000290 a0 c9 4b be 21 6e 18 be 14 b5 22 3e 4d e6 27 3e
       -0.19901133 -0.14885761 0.15889388 0.16396447
0002a0 0e 16 83 3e b3 b3 5e 3d 0d 8a 11 be 70 f3 3d 3e
       0.25602764 0.054370593 -0.14212818 0.18549895
0002b0 32 c6 37 be 25 64 0a 3e 26 47 2a bd 42 9c 6a 3d
       -0.179467 0.13514765 -0.04157176 0.057277925
0002c0 09 ad 60 3e ec 0b ab bd 97 16 65 bd 8a 52 8a 3c
       0.21941008 -0.08351883 -0.055929746 0.01688506
0002d0 8b 7c c5 3d 9c 4e 53 be e8 9d 01 3c eb 5f fb bd
       0.09642895 -0.20635456 0.007911183 -0.12274154
0002e0 a7 90 79 3e db f4 3a be 8d 09 a9 be e4 11 b0 bd
       0.24371587 -0.18257467 -0.330151 -0.08597162
0002f0 e7 0e 0e 3e eb 3f f7 3b e8 26 d4 bd 13 c2 f0 3d
       0.13872872 0.0075454614 -0.10358983 0.11755767
000300 33 af 0c be 9f 6b c6 bd a1 17 1a bc 4c cb 1f 3d
       -0.13738708 -0.09688496 -0.009405048 0.03901224
000310 64 c1 9a bd 26 13 2f 3d bd da 2a 3e d7 ef 11 3e
       -0.075564176 0.04274287 0.16685005 0.14251648
000320 c5 5f 52 3d 50 2c 39 3e 4d ef 5c 3d cc 96 35 3e
       0.051360864 0.1808331 0.053939153 0.17733306
000330 ad 7a a5 bd 59 d0 74 3d f1 88 64 3d 9d da 8a be
       -0.08080039 0.05976901 0.05579466 -0.27119914
000340 39 13 d0 be 97 6b c7 bd 3d 2b 95 bc 51 91 d9 be
       -0.40639666 -0.09737318 -0.018209094 -0.4249368
000350 a9 b0 9c bd e1 3b c5 be cc ee a1 be d2 19 38 be
       -0.07650883 -0.38522246 -0.316275 -0.179786
000360 90 0b e6 3c a6 5d e3 bd 0a 19 63 bd 51 7a 82 be
       0.028081685 -0.111018464 -0.0554438 -0.25483945
000370 ec 3d 90 be 86 a8 6e 3e a1 4f 19 be 92 d5 8b bd
       -0.28172243 0.23306474 -0.14971782 -0.06827845
000380 e8 75 d1 3d 75 9a 11 3e 95 43 4a be 8c 07 21 bc
       0.10227567 0.14219077 -0.19752343 -0.0098284595
000390 60 7d 1a 3e 4d 19 29 be 66 3c 95 3d 29 af 13 3e
       0.1508689 -0.16513558 0.07286911 0.14422287
0003a0 11 b9 6b 3e 9c ba ae 3d 6e 6b dd bd 59 30 b3 bd
       0.23019816 0.08531687 -0.10811506 -0.08749456
0003b0 86 7e 0a 3e 3f 57 c7 be 25 10 53 3e 87 e5 55 bc
       0.13524827 -0.3893375 0.20611627 -0.013055212
0003c0 15 b0 f5 bd 6b 86 c0 3d de 63 56 3d 66 78 a0 be
       -0.119964756 0.09400638 0.052341335 -0.31341857
0003d0 63 25 21 3e 55 43 14 be 70 6a 84 be f8 8e c0 bd
       0.15736918 -0.1447881 -0.25862455 -0.09402269
0003e0 3c 76 df 3c e7 db 1e be 4d 57 bc be 3b f5 d9 3d
       0.027278058 -0.15513574 -0.36785355 0.10642477
0003f0 c7 a2 b7 bd 7e 9a 96 3d 12 f0 e2 bd 9f a1 48 be
       -0.08966594 0.07353686 -0.11080946 -0.19592904

arith.constant6 f4 [128, 128]
000000 a4 b4 e0 3b 03 8a 24 be 40 76 f9 3d 55 d7 45 bd
       0.0068574715 -0.16068272 0.121807575 -0.04830106
000010 2c 3a b3 bd 66 b9 c3 3d 96 79 97 3d a7 ef cb bd
       -0.0875133 0.09556846 0.073962376 -0.099578194
000020 02 c9 a1 bd eb 9f 90 bd db 36 03 be 97 18 1b 3e
       -0.07899667 -0.07061752 -0.12813894 0.15146099
000030 e6 79 6c 3d a3 8d 81 3c 84 45 bb bc cf a9 81 bd
       0.05773344 0.015814608 -0.022860296 -0.063312165
000040 b5 aa a4 bd 9e 2d 4b bd 28 a9 e7 bd a6 16 6b 3b
       -0.08040372 -0.04960405 -0.11311561 0.0035871654
000050 86 ad ff 3d 15 f4 9c bd 09 49 8f bd 9d 8e c3 3d
       0.12484269 -0.076637425 -0.06996352 0.09548686
000060 41 65 27 3c 5b 3f 0d 3e c8 db ce bd 4d 45 3b 3e
       0.010217012 0.137937 -0.10100514 0.18288155
000070 d8 b1 35 3e 68 31 20 3d 28 3d d1 bd 80 a6 74 bd
       0.17743623 0.039109617 -0.10216743 -0.0597291
000080 46 dd 0f bc 01 2a b7 3e 4c 8c 89 bd 31 80 a6 3d
       -0.008780783 0.35774234 -0.06716213 0.08129919
000090 50 f2 1a be 3c e4 3b 3d c3 78 df bd 41 c0 2c 3c
       -0.15131497 0.045871958 -0.10911705 0.010543884
0000a0 d5 8d ab bd fa c5 fd 3d 75 43 98 3d 5d e6 fd 3d
       -0.08376662 0.12391277 0.074347414 0.12397454
0000b0 a4 77 7e bd 4f b3 05 3e 58 ed b4 bd f6 9b 8e bd
       -0.062125817 0.13056682 -0.08834332 -0.06963341
0000c0 16 db 15 bd 5f 59 4a 3e 1b 14 92 3b 0e 8d a4 3d
       -0.03658589 0.19760655 0.004457963 0.080347165
0000d0 99 4b 9f 3d 2f 48 72 ba bc 87 b3 bd 43 24 da bb
       0.07778091 -0.00092423236 -0.08766124 -0.0066571548
0000e0 62 e7 d0 3d 80 6b a5 3c b0 72 df bd 8e 17 16 be
       0.10200383 0.020192862 -0.10910547 -0.14657423
0000f0 78 e9 67 be a0 b6 22 3d e0 7a 88 bb 30 21 13 be
       -0.22647655 0.039724946 -0.0041650385 -0.14368129
000100 0b 06 26 bd 82 7e ea bd 55 36 eb 3d d8 a4 dd bd
       -0.040533107 -0.11449911 0.114849724 -0.10822457
000110 c6 99 09 be fe a2 3b be 00 9d 0b 3d 2d 74 07 3d
       -0.13437566 -0.18323895 0.034085274 0.03306978
000120 3f 15 99 bd 34 9d 60 3d 70 da 02 bd 7f ce cd bc
       -0.074747555 0.05483742 -0.0319466 -0.02512288
000130 5d 0b 2c 3d 83 e4 bb bd e1 33 f4 3d 64 56 ff bd
       0.042003024 -0.091744445 0.119239576 -0.124676496
000140 ec 0a 2b 3d 7c 03 b3 bd e1 c1 c6 bd 7c 9e c2 3d
       0.041758463 -0.08740899 -0.09704948 0.09502885
000150 c4 aa 27 3e dc aa 03 bc f6 86 6b bd 55 7a 14 bc
       0.16373736 -0.0080363415 -0.057501756 -0.009062369
000160 fd 82 8a 3c 08 c7 f8 bd 25 6c 70 3d 6e 14 1c 3e
       0.016908163 -0.12147337 0.058696885 0.15242168
000170 6b a7 d9 bd 4e 52 d9 3d 9a bd ce 3d 4e 0a 07 be
       -0.106276356 0.106114015 0.100947574 -0.13187525
000180 f4 56 d9 3d b6 48 bb bd 5e fe d6 bd 72 a1 c5 bd
       0.10612288 -0.09144728 -0.104977354 -0.09649934
000190 57 21 07 bd bd 24 ac 3d 86 06 c0 3d d7 80 10 3e
       -0.03299078 0.08405445 0.09376244 0.14111648
0001a0 77 f8 f0 3d c8 ba 93 bd 0a 59 92 be d6 97 dd 3d
       0.11766141 -0.0721336 -0.28583556 0.10819976
0001b0 6f 8b 40 bd 89 52 e8 3d 57 0c bd bd d8 7c 2c be
       -0.047007974 0.11343867 -0.09230869 -0.16844499
0001c0 9e 56 50 bd 83 16 a6 bb cf d9 e4 bc 8f 22 21 bd
       -0.050863855 -0.0050686016 -0.02793589 -0.0393396
0001d0 60 b3 18 3e 9b 54 fd 3d 3f 2b 84 3d 38 b4 ca 3c
       0.14912176 0.12369653 0.06453561 0.024744138
0001e0 70 46 48 bc b4 60 e7 bd 2f dd f7 bd 34 32 f5 bd
       -0.012223825 -0.112977415 -0.12102734 -0.11972466
0001f0 75 9d 4c bc 31 28 a9 3d 65 ef 0a 3e 7a 66 63 bd
       -0.012488713 0.08259619 0.13567884 -0.05551765
000200 03 b0 b6 3d 04 91 04 3e 12 5f 9d 3d 56 4a 0f 3e
       0.0892029 0.12945944 0.07684149 0.139932
000210 f8 6e 05 bd a9 8d 1c be 11 00 18 3e 4a 2d c6 bd
       -0.03257653 -0.15288414 0.14843775 -0.09676607
000220 9e d1 6e 3d ce 77 70 bd 45 5e d8 bd 14 c6 ba bd
       0.058305375 -0.058708005 -0.105648555 -0.09119812
000230 b1 3d 4a bc 41 eb 09 3e c5 91 1c be 54 0c 70 3d
       -0.01234381 0.13468648 -0.15289982 0.058605507
000240 b3 2e 47 be bf 76 a2 3d fb 96 37 3d 28 17 04 3d
       -0.19451408 0.07932805 0.04482172 0.032248646
000250 0c d5 c3 3d 04 2a b3 3d 5c 11 c8 bd 03 5b 79 3d
       0.0956212 0.08748248 -0.09768936 0.06087781
000260 9f f3 38 3d 74 8b ad 3d 1b 52 34 bd c5 ef ad bd
       0.04515421 0.08473864 -0.044023614 -0.08492998
000270 ec fb b2 3d 57 ac 87 3d 46 88 5f 3e 38 4e 62 be
       0.087394565 0.06624668 0.21829328 -0.2210015
000280 43 bf 0d be 99 40 72 3e 7f 27 b4 3c 5c 74 e1 3b
       -0.13842492 0.23657455 0.02199149 0.006880326
000290 e7 b3 0a 3e e6 d7 e8 3d 1f 14 2b 3e 81 26 21 be
       0.1354519 0.11369304 0.16706894 -0.15737344
0002a0 99 4c 4e bd e9 b1 01 be aa ce e8 bd 0b 53 22 bd
       -0.050366018 -0.12665524 -0.11367543 -0.039629977
0002b0 5d a0 8d 3d 51 11 8a 3d 9b fd 92 be 66 1b ac 3d
       0.069153525 0.06741584 -0.2870911 0.08403663
0002c0 d9 7c 84 3c b5 f1 f7 3d 4f 2d 00 be 01 99 a1 bd
       0.016172813 0.12106649 -0.12517284 -0.07890511
0002d0 5a 0a 06 3e 1c d0 24 3e 9b ca c3 bd 1c 3b ba 3d
       0.13089886 0.16095012 -0.09560128 0.090933055
0002e0 a2 58 61 bd 3f 85 26 bd d3 15 cc bd 3e 10 5a 3d
       -0.055016167 -0.040654417 -0.099651 0.053238146
0002f0 a4 18 76 bd a6 e8 6e bd d0 10 3b 3e ca e1 3e bc
       -0.060082093 -0.05832734 0.18268132 -0.011650512
000300 56 df 0a 3d c5 28 fc bc be 27 1f bd 70 68 f9 bd
       0.033904396 -0.03078116 -0.03885626 -0.12178123
000310 7d f4 d6 3d cf 1c 18 bc f3 87 d7 bb fc bf ee 3d
       0.10495851 -0.009284212 -0.0065774857 0.11657712
000320 27 bd b3 3c 8b 0f 88 bd c1 ff 03 3e e6 6d 19 bd
       0.02194078 -0.066435896 0.12890531 -0.037458323
000330 eb 3f 24 be 6e 7e 1b be 0d 32 55 bd 5b 43 1f bd
       -0.16040008 -0.15184948 -0.052049685 -0.038882595
000340 57 44 cd 3c 11 a8 15 be 31 75 2e 3d 2d 99 15 be
       0.025057001 -0.14614893 0.04259223 -0.14609213
000350 37 dc 19 3e 47 a7 f9 3c 16 f7 98 3d fb 27 0d 3c
       0.15025412 0.030475272 0.07469003 0.008615489
000360 7b bc 18 3d 0f cc 1f 3e 02 55 a6 bc 50 3a 33 3d
       0.037289124 0.15605186 -0.020304207 0.043756783
000370 6d b8 49 bd 85 29 03 bd e8 ec cf 3d 31 b5 fc 3d
       -0.049248148 -0.032022018 0.10152608 0.12339247
000380 e0 1e 85 3d 18 9d 5e bd 55 d2 34 bd 34 b6 13 bd
       0.065000296 -0.054349035 -0.0441459 -0.036062434
000390 ae 85 86 3d e0 a0 3a 3d 3f 72 80 bb 66 8d cc 3d
       0.06568466 0.04556358 -0.003919869 0.09987907
0003a0 da 22 b6 bc 8f 5e f3 bc 3b ff 65 be 3a 5a 1b 3e
       -0.022233415 -0.029708175 -0.22460644 0.15171137
0003b0 aa a1 ec bc 71 44 88 3c 25 04 91 bd 80 51 3d 3d
       -0.028885681 0.016634198 -0.07080869 0.046220303
0003c0 27 dc 46 3e c3 ff 06 3e 5a 51 13 3e 74 d4 6c 3d
       0.19419919 0.13183503 0.14386502 0.0578198
0003d0 c2 b4 80 bd e2 c6 6b bd 64 2a 6f 3d c1 0a 99 bd
       -0.06284477 -0.057562716 0.058390036 -0.07472754
0003e0 c4 e2 c4 3d 8c e1 1d be c9 26 62 3b f4 a5 b5 bc
       0.096135646 -0.1541807 0.003450798 -0.02217386
0003f0 81 c8 4b 3d 48 11 2e be c4 86 0d be 49 bc 9c bd
       0.049751762 -0.1699878 -0.1382094 -0.076531

arith.constant7 f4 [128, 1600]
000000 c1 e4 d0 3c 04 d3 86 3d d4 9e 1e 3d e8 7f 02 3d
       0.025499703 0.06583217 0.03872569 0.031860262
000010 23 f0 1f 3d 6c 7d aa bc d9 87 94 3b 75 14 c0 bd
       0.03904737 -0.020811759 0.004532796 -0.09378902
000020 93 63 0a bc e1 b7 6a bd 02 58 a9 3b e9 be 93 bd
       -0.008446592 -0.057304267 0.005167962 -0.072141476
000030 a9 d1 e3 bd 19 14 47 bd cb 41 95 bc b7 18 b5 3d
       -0.11123974 -0.04860315 -0.01821985 0.088426046
000040 93 88 38 3d d9 6e 09 3e 3e ed fa 3d ea f1 21 bd
       0.045052122 0.13421191 0.122522816 -0.039537348
000050 ab d4 48 bc 39 f6 0d 3d 22 b5 89 bd 7d c9 e0 3d
       -0.012257735 0.034658644 -0.067240015 0.10975931
000060 90 a0 79 3d 80 73 3d 3d 30 94 97 3d b0 9c 0d bd
       0.06094414 0.046252728 0.074013114 -0.034573257
000070 62 a1 72 3e 21 f5 06 bd 7b 0e 63 3d 04 c7 16 3d
       0.23694375 -0.032948617 0.05543373 0.03681089
000080 25 4e de 3d 61 7b b4 3d d9 07 80 3d 70 df 4b bb
       0.10854749 0.08812595 0.06251497 -0.003110852
000090 19 f6 46 bc a8 26 84 bc 11 f4 2d bd ca bd 02 bd
       -0.012143635 -0.016131714 -0.042469088 -0.03191928
0000a0 9c c0 2e 3c a4 7e e6 3c 47 0f 55 bc 32 5d 02 3e
       0.010666039 0.028136559 -0.013004131 0.12730864
0000b0 6c cf 82 3d 14 ed ce 3d c1 fe 9c bc 97 ae 9e 3d
       0.06387219 0.10103813 -0.019164445 0.07748144
0000c0 74 84 01 3e c7 5d 01 be c6 5c b9 3d 57 00 51 bd
       0.12648183 -0.1263343 0.09050898 -0.051025715
0000d0 f8 89 97 3c 34 4a d7 bc 63 a1 cc 3c a7 5e e9 bc
       0.018498406 -0.0262805 0.024979299 -0.028487517
0000e0 64 92 17 3c cf c4 78 3d 06 63 37 3d 69 8d 28 3d
       0.009251211 0.060734566 0.04477217 0.041150484
0000f0 05 56 43 bd ee 62 5b 3d 31 9c 7e bc 36 25 28 3d
       -0.047689456 0.053561144 -0.015540169 0.041051112
000100 2f 72 ff bc 7c c5 5b 3d ac d0 e7 bc 44 da b3 3c
       -0.031182377 0.053655133 -0.028297745 0.021954663
000110 d5 55 c5 bc 92 39 21 bd 84 b9 bd bc e0 02 f6 bd
       -0.02408878 -0.039361544 -0.02315975 -0.12012267
000120 7d cd 62 bc c6 a3 96 bc 24 16 9f bc e2 d5 5b bd
       -0.013842938 -0.01838864 -0.019419737 -0.05367077
000130 b2 c0 95 bd 1d 7d 7e 3c cb 46 17 3d 17 7e 28 3d
       -0.07312144 0.015532759 0.036932748 0.041135874
000140 c0 41 8f bb fa 23 09 3e 87 ff 22 3d 6b 69 a2 3c
       -0.0043718517 0.1339263 0.03979447 0.019825658
000150 26 31 86 bd da 64 aa 3c 9a 15 7c bd 54 f1 d3 3c
       -0.06552343 0.020800043 -0.06154404 0.02587191
000160 67 55 f2 bc 01 bb 02 3d 4f 3e 64 3d 31 b9 24 bd
       -0.029581739 0.031916622 0.055723485 -0.040215675
000170 c5 4e ac 3d 80 82 11 3d 89 d6 47 3c 12 85 90 bc
       0.084134616 0.035524845 0.012197145 -0.017641578
000180 d9 43 b6 3d 36 8a a2 3d 4c e1 85 3c 08 d8 7c 3c
       0.0889966 0.07936518 0.016342781 0.015432365
000190 aa 35 89 3c 92 05 fa bc 72 4f 9f 3c ac 03 b1 bd
       0.016749222 -0.030520234 0.019447062 -0.086432785
0001a0 c6 f7 39 bd a8 3c 2c 3b 04 26 d7 bc f7 17 e3 3d
       -0.04540231 0.002628127 -0.026263244 0.11088555
0001b0 91 6e 98 3d 49 65 7f bc e3 6c a3 bc 27 1c 5c bc
       0.07442964 -0.015588113 -0.019949382 -0.013434446
0001c0 56 57 c1 bc 35 04 30 be 1b 8b bd 3d ad b6 af bb
       -0.023601215 -0.17189105 0.09255048 -0.005362353
0001d0 87 fb d2 3d 3b cf 91 3c 60 17 d9 3b 1c 3e 8c 3c
       0.10301881 0.01779901 0.006625101 0.01711946
0001e0 c8 cd 3e bc e6 1c 84 3d d9 5d db 3d cd f8 a2 bc
       -0.011645742 0.064508244 0.107112594 -0.019894028
0001f0 4d ad 27 3d 76 d6 95 bc 1c fa 92 bd f9 08 a4 3c
       0.040936757 -0.01829074 -0.07176611 0.02002381
000200 04 4f 98 bd ff 11 db bd 1f bc 91 3c 08 76 84 3c
       -0.07436946 -0.10696792 0.017789898 0.016169563
000210 68 4c 62 bd 05 7d 92 bd a8 1a bc 3b 56 b0 f7 bc
       -0.055248648 -0.07152752 0.0057404824 -0.03023545
000220 01 cf c9 bc fd ae e0 bb e7 ba 9c 3b 06 42 64 3b
       -0.02463484 -0.0068567977 0.0047830227 0.0034829392
000230 0f 70 5e bd 8b 4d 25 bd c6 74 85 bc ca 42 be 3d
       -0.054306086 -0.040357154 -0.016291033 0.09290083
000240 b8 00 4d 3d 99 30 49 3e 54 eb dd 3d d9 c3 1a bd
       0.050049514 0.19647445 0.10835901 -0.03778443
000250 03 6a c0 bd 5e 11 bb bc 51 b3 31 bc b2 b1 8a 3c
       -0.0939522 -0.02283543 -0.010845975 0.016930435
000260 54 61 36 bc e7 02 99 bd 0c e7 31 3d f8 6b a5 3c
       -0.011131603 -0.07471257 0.043433234 0.020193085
000270 d8 14 d9 3d 9b ab 8b bd 52 b9 ab bd fe 56 5e bc
       0.10599679 -0.068198405 -0.083849564 -0.013570545
000280 3b a1 70 3d 15 02 6c 3d ce 4a 9c bd 99 6e fb 3c
       0.05874751 0.057619173 -0.07631455 0.030692386
000290 7b 24 a0 3d 76 39 3e bd 00 7a 23 bd 28 4f 74 bd
       0.07819458 -0.046441518 -0.03991127 -0.0596458
0002a0 fc c8 b7 3b d1 22 51 bd 89 70 7e bd c9 16 cd bc
       0.005608676 -0.051058594 -0.06211904 -0.025035279
0002b0 9d 5f 2c 3d 58 f6 36 bb 6d 43 cb 3c 4e 6f ec 3c
       0.04208337 -0.0027917828 0.024812425 0.028861668
0002c0 f7 61 9c bc b5 91 ad bc 19 02 5f 3d fa 35 c7 bd
       -0.019089682 -0.021187643 0.05444536 -0.09727092
0002d0 7d 47 b7 bc e6 c4 59 3d 1d 2b 5d 3b 92 da f2 bb
       -0.022372955 0.053166293 0.0033747621 -0.0074113095
0002e0 04 bb 07 3e dc 40 79 bd 98 24 7d 39 62 5f 09 bd
       0.13254935 -0.06085287 0.00024141592 -0.03353823
0002f0 db 19 66 3d e9 e2 6b 3b a5 67 51 bb 82 0f b1 bd
       0.056177 0.0035993403 -0.0031952646 -0.08645536
000300 36 52 db 3b 87 d2 3d bb 18 88 91 3c b2 5e a9 bd
       0.00669315 -0.0028964595 0.01776509 -0.08270015
000310 85 55 47 bd 4a f3 1b bd cc 08 aa 3b 1d b1 16 bd
       -0.048665542 -0.038073815 0.005189037 -0.036790002
000320 dd 83 3c bd 4b fa 62 bd d8 0d 6c 3d 54 6b 03 bd
       -0.046024192 -0.05541448 0.05763039 -0.032084778
000330 f8 d1 b9 3c 87 3d b3 3c a2 2b 20 3c cf 39 47 3d
       0.022683129 0.021879924 0.009776028 0.048639115
000340 27 07 1d 3c 8b 69 49 bd 91 61 42 bd 64 48 a4 3c
       0.009584225 -0.04917292 -0.047456328 0.02005405
000350 61 f1 14 bd 94 79 32 3c 8f dd da bd 92 4c 3d bd
       -0.03636301 0.010893244 -0.1068679 -0.0462156
000360 2b 13 ec 3b 5b 91 d9 bd 57 90 4d bc de f3 c6 bd
       0.0072044334 -0.106234275 -0.01254662 -0.09714483
000370 e4 52 60 bd 08 fd ba 3a 6e 24 44 3c 49 6d 3a bd
       -0.05476655 0.0014266083 0.011971576 -0.04551438
000380 6f 42 84 bd e4 bb 40 bd c1 1a 3b 3d 2d 0f 49 3c
       -0.06457984 -0.047054186 0.04567981 0.012271685
000390 b0 9c 65 3e 22 a3 fd 3c b2 6d fa 3c 79 34 87 bd
       0.22423053 0.030961577 0.030569885 -0.06601805
0003a0 4b f7 08 3c 15 14 ce bc 47 64 f0 bc 7b e2 0f bd
       0.0083597405 -0.02515606 -0.029344691 -0.035128098
0003b0 77 ca ab bd 60 fa 68 bd d1 b9 66 bd 20 69 a1 bd
       -0.083882265 -0.0568794 -0.056329552 -0.07881379
0003c0 49 85 97 bd f0 e1 c5 3d 6a 49 a7 3b 13 58 b9 bd
       -0.07398469 0.09662235 0.005105187 -0.09050002
0003d0 86 69 be bc 08 bd 06 bd c2 0c 7e bc d7 86 bf 3c
       -0.023243677 -0.032895118 -0.015505971 0.023379726
0003e0 1b 3a 7e 3d 4c 02 ac bc c3 d7 11 bd eb 57 9a bd
       0.062067132 -0.020997189 -0.035606157 -0.075363
0003f0 e8 54 48 3c bb 88 7a bd d4 a5 92 3c 4c 5b 89 bd
       0.0122272745 -0.061165553 0.017901339 -0.067068666

sequential_1/conv2d_1/convolution f4 [32, 3, 3, 1]
000000 3b 13 cb 3d cc a7 9f 3d c7 c2 42 be cb 7f 81 3d
       0.09915777 0.077956766 -0.19019614 0.06323203
000010 19 a5 09 3d 15 3e bc bd d0 21 16 3e 6d 29 2f 3d
       0.033604715 -0.09191529 0.14661336 0.042764116
000020 6b 49 57 be 68 3f 32 3d 2d 6f 66 3d 3c ee a0 bd
       -0.210241 0.0435175 0.05625837 -0.078579396
000030 78 58 10 be 84 e1 9f 3c 9f cf ef 3d 02 62 e4 bc
       -0.14096248 0.019516714 0.117095225 -0.027878765
000040 88 53 30 be ca bb 38 3e 47 14 21 3c 91 20 0c be
       -0.17219365 0.18040386 0.009831495 -0.13684298
000050 0b a0 fd bd a4 0a ab 3c 46 a3 cf bd 34 00 6b 3d
       -0.123840414 0.020879097 -0.10138564 0.05737324
000060 e8 2c ba bd ba 20 a0 bd 64 51 00 be e1 d5 ca 3d
       -0.090905964 -0.07818742 -0.12531048 0.099040754
000070 66 c9 15 3e 24 ec 74 3e c8 38 2c be fc 2e 03 be
       0.14627609 0.23918205 -0.16818535 -0.12810892
000080 31 db 05 be 69 27 4f 3d 41 51 77 be ae 0e d3 3d
       -0.13071896 0.050574694 -0.2415209 0.10305534
000090 85 bc d9 bd 8f 4f 2f be 24 14 0a 3e ae 0f 5f be
       -0.1063166 -0.17120193 0.13484246 -0.21783325
0000a0 ef 26 f1 3d f1 c5 28 3d fa c5 42 3d 36 72 94 3b
       0.11775004 0.041204397 0.047552086 0.0045302166
0000b0 ee 67 06 3e ab fc 88 3e b2 d9 c1 3d 24 99 3a 3c
       0.13125584 0.2675527 0.0946535 0.011389051
0000c0 1f 53 81 bd 76 7c e9 bc ad 1c f4 3d 04 45 3e be
       -0.06314682 -0.02850173 0.11919532 -0.18581015
0000d0 37 d0 7a be 22 61 96 bd 96 47 d6 bd 1b c5 63 be
       -0.2449349 -0.07342745 -0.10462873 -0.22243159
0000e0 d4 d0 99 bc 8e 5e 79 bd 08 74 8d 3d c5 9f 29 bc
       -0.018776335 -0.06088119 0.06906897 -0.010353033
0000f0 d1 92 af 3d f0 7c 1f 3e ee a7 a6 3d 6d c9 2e 3e
       0.08572925 0.15575004 0.08137499 0.17069025
000100 f5 a4 55 3d ac 6f 16 3e 06 96 70 3c b2 87 01 3e
       0.05215927 0.14691037 0.014684206 0.1264942
000110 a3 51 05 be 88 c2 82 be c2 b4 da bd 4b db d7 bc
       -0.13019423 -0.2553904 -0.10679008 -0.026349684
000120 4d 56 fb bb 91 0f 06 3e 28 ac 9f 3c 45 95 88 3d
       -0.0076702 0.13091876 0.01949127 0.06669096
000130 97 0f 76 3b 0c 1d 05 3e c0 b6 28 3e 27 28 22 3e
       0.0037545913 0.12999362 0.16475964 0.1583563
000140 56 47 ec 3d 96 7b 29 3e 89 51 06 3e ad 35 28 be
       0.11537044 0.1655105 0.1311704 -0.16426726
000150 d7 1e 05 bd a2 b0 15 3e 67 a7 a4 bd 86 d4 aa bd
       -0.032500114 0.14618161 -0.08039742 -0.08341317
000160 f8 fd 7c 3d 48 77 26 be ec bf e2 bd 0c 36 9b bd
       0.06176564 -0.1625644 -0.110717624 -0.07578668
000170 f2 20 82 bd 3c 1c ca 3d 4d 25 9f 3d cc 08 09 3e
       -0.0635394 0.098686665 0.077707864 0.13382262
000180 15 53 f4 3b 8d 6c 9e 3d da ae 00 be 2b 61 9c bc
       0.007456193 0.07735548 -0.125667 -0.019089302
000190 01 d0 19 be dc d3 7c 3d 08 db a3 bd 7f d6 c3 bc
       -0.15020753 0.061725482 -0.08000761 -0.02390599
0001a0 1a 4a bf 3d 2a 22 d0 3c cc 3c ee 3d 3a c2 62 3c
       0.093403056 0.025406916 0.1163269 0.0138402525
0001b0 b3 11 73 be 5c f2 0d be 80 0d 91 3d 5e 02 31 3d
       -0.2373722 -0.13861984 0.07082653 0.04321515
0001c0 da 80 17 be 4e c6 1b bd 72 e0 01 3e b7 28 22 3e
       -0.14795247 -0.038030915 0.12683275 0.15835844
0001d0 53 46 ff 3d 76 e6 1f 3e 59 ab 0b 3e 0c eb 30 bd
       0.12464585 0.15615258 0.13639583 -0.04319291
0001e0 f5 43 24 3d 86 5a b9 bd bd 67 f1 3d 3f 16 66 be
       0.04010387 -0.09050469 0.11787365 -0.22469424
0001f0 27 4e 6d be 41 f7 01 3e 41 34 ad 3b b1 0c 58 3e
       -0.23174344 0.12691976 0.00528577 0.21098591
000200 1d 62 08 3e 32 8c 82 bd 3c 17 ed 3d e7 87 b5 3d
       0.13318677 -0.063743964 0.11576697 0.08863812
000210 80 f3 5a be a9 4d 33 be 42 4e 05 be 14 51 1d bc
       -0.2138195 -0.17510094 -0.13018134 -0.00960185
000220 d7 89 6b bd 4d 1f 2e be 01 b1 2d be fb 1a c0 3d
       -0.0575045 -0.17004128 -0.16962053 0.09380146
000230 be c5 7f bd b2 41 c5 bd a0 c5 60 3e 18 5e 70 3e
       -0.06244444 -0.09631671 0.21950388 0.23473394
000240 8d 00 76 3d 67 aa 98 bd 4c 2e 39 be f7 f8 8e bc
       0.06005912 -0.07454377 -0.18084067 -0.0174527
000250 f4 36 54 3b e9 2c e4 bd 42 e8 34 3e 25 6e ba 3d
       0.0032381387 -0.111413784 0.17666724 0.0910304
000260 43 73 68 3c 30 9d 05 bc 7d 22 05 3e 90 e1 87 bc
       0.014187637 -0.008155152 0.13001437 -0.016587049
000270 f4 66 c0 3d 77 0f d3 3d e3 0d ba bd f0 e5 c5 bd
       0.09394637 0.10305684 -0.0908468 -0.09662998
000280 2c 4e 9b 3c 8b 39 0f be 5b e5 aa 3d 86 0b 66 3b
       0.018958174 -0.13986795 0.08344527 0.0035102083
000290 e5 49 29 3e d7 d5 eb bd 38 64 18 be b2 72 20 be
       0.16532095 -0.11515396 -0.1488198 -0.15668753
0002a0 56 7d 26 3c ae 99 3e bd 58 fe 17 3e d0 5e 10 3e
       0.010161718 -0.04653328 0.14843118 0.14098668
0002b0 6d 7a e4 bd 20 7f 7b 3d 50 fd 33 3e 90 b8 eb bd
       -0.11156163 0.061400533 0.175771 -0.11509812
0002c0 f1 5f fa bc 83 9c 3c 3e b7 fb 9f 3d bb 2f d9 3d
       -0.030563327 0.1841908 0.07811683 0.10604807
0002d0 07 c8 39 3e 49 a5 47 3d c8 60 7c 3e 63 e2 64 bd
       0.1814271 0.048741613 0.24646294 -0.05587996
0002e0 a1 79 b8 bd 5e c3 ad 3a fa 3c 63 be 28 ad 8f be
       -0.09007574 0.0013257076 -0.2219123 -0.28061795
0002f0 ab db 0e 3e 2b 2c 78 3d f1 ae 58 3e 31 b8 83 3d
       0.13950984 0.060588997 0.21160485 0.06431616
000300 41 15 18 be 0c fe 27 3d 54 d7 43 3d 66 4c 6c be
       -0.14851858 0.041013762 0.047812775 -0.23076019
000310 05 68 3c be 6a a5 d4 3d 49 23 44 3c 1e f3 6e 3d
       -0.18399055 0.10383113 0.011971303 0.058337323
000320 ec 41 d6 3d 25 dd 4a bd 6b 1e 07 3e 1e cb e4 3d
       0.10461792 -0.049527306 0.13195197 0.11171554
000330 6c fe 5f 3d 75 ef 74 3d 83 fd 47 bc d2 24 4c be
       0.054685995 0.059798677 -0.012206438 -0.19935921
000340 b5 46 9c bd ad f4 38 be 93 4d 59 bd ac 7b 20 be
       -0.07630674 -0.18062086 -0.053052496 -0.15672177
000350 75 02 76 bd 79 13 6f 3e 0b c9 84 3e af e4 27 3e
       -0.060060937 0.23347272 0.25934634 0.1639583
000360 5c ca 53 be 45 19 8b be d7 88 f6 bd 19 4c 67 3c
       -0.20682663 -0.27167717 -0.12037819 0.014117264
000370 b4 af 3a 3e b8 ce 95 3d 4f 0e cb 3d 83 b0 11 3e
       0.18231088 0.07314819 0.099148385 0.1422749
000380 55 a8 17 3d e4 70 06 be 5b 7d a1 bc a3 f5 57 be
       0.03702577 -0.13129002 -0.019713094 -0.21089797
000390 ac ec b2 bd b5 c9 22 be f5 30 1d 3d 19 37 b5 3d
       -0.08736548 -0.15897258 0.038376767 0.088484
0003a0 e0 d4 5d 3e 82 19 00 3d e0 51 6b be 50 c1 d9 bd
       0.21663237 0.031274326 -0.22980452 -0.106325746
0003b0 b3 2c 51 be 54 78 ad 3d 43 74 29 3e f8 ac 63 3d
       -0.20427208 0.084702164 0.16548257 0.055584878
0003c0 20 bd cd 3d ce e7 62 bd 64 47 49 bc ff cc 33 3e
       0.10045838 -0.055396847 -0.012285087 0.17558669
0003d0 c0 3a 97 3b d5 c8 58 3e 20 7a 3e 3e d1 45 0c be
       0.004615158 0.21170361 0.18601274 -0.13698508
0003e0 96 09 b5 bd fa 65 80 3d dd a2 45 be 7c b3 7a be
       -0.08839719 0.062694505 -0.19300409 -0.2448253
0003f0 c6 12 51 3d d6 6a e8 bc d4 bd 42 be 9c 1c 38 3e
       0.051043294 -0.028371256 -0.19017726 0.17979664

sequential_1/conv2d_1/Relu;sequential_1/conv2d_1/BiasAdd;sequential_1/conv2d_1/convolution; f4 [32]
000000 cd e1 e6 3b 54 b5 f3 3a da 06 bf bb f8 55 5e 3c
       0.0070459605 0.0018593469 -0.005829674 0.013570301
000010 33 43 8d 3b b7 3f dd 3d aa 7d 05 3c f0 ea de 3b
       0.0043109893 0.10803168 0.008147636 0.006802909
000020 8c 6e 8d 3c aa 06 08 3c 9d 1b 83 3b ec 32 9d bc
       0.017264627 0.00830237 0.0040010945 -0.01918932
000030 ad da 07 3c da 70 59 3c be 65 d8 3b 06 a5 9a 3b
       0.008291882 0.013271535 0.0066039255 0.0047193794
000040 7b eb 02 3c 75 a3 c6 3b 53 d2 0d 3d 13 a2 e5 bc
       0.007990713 0.006061966 0.03462441 -0.028031385
000050 27 3f 31 3c 69 4c 5b 3c c9 c0 b2 bc 55 2e b5 3c
       0.010818279 0.013384917 -0.021820443 0.02211682
000060 89 2a af 3c 45 cb 2f 3e 20 4f 3a 3e 14 d8 0d 3c
       0.021382587 0.17167385 0.18194246 0.008657474
000070 fc a2 ad bc fe e8 9b 3b 8e c0 0b bc 17 4f 89 bc
       -0.021195881 0.0047579994 -0.008529795 -0.016761346
