app/src/main/assets/braille_recognition_model.tflite (tflite, 912488 bytes, 8 tensors)

arith.constant f4 [128]
0	0xbca0e7a1	-0.0196417
1	0x3c4847c7	0.012224144
2	0xbbff7c98	-0.007796835
3	0xbb7909c3	-0.0038000203
4	0xbbc40049	-0.0059814793
5	0xbbf3cd8d	-0.007440275
6	0x3d0d3700	0.03447628
7	0xbb96fc16	-0.0046076877
8	0xbbc07b27	-0.005874056
9	0xbc0885d5	-0.008332689
10	0xbc3db8a6	-0.011579668
11	0xbbc19a94	-0.0059083197
12	0x3d70eae9	0.058817778
13	0x3d189a24	0.037256375
14	0xbbaf1e15	-0.005344162
15	0xbbd2b619	-0.006430399
16	0xbbc4c3b1	-0.0060047735
17	0x3b946994	0.0045291875
18	0xbc04a683	-0.00809634
19	0xbbc46d48	-0.0059944727
20	0xbbd17a2c	-0.006392738
21	0x3c7eb427	0.015545881
22	0xbd6cf112	-0.05784709
23	0x3cb6380d	0.022243524
24	0xbbc4b134	-0.0060025696
25	0xbbcf0a5a	-0.0063183727
26	0x3cb51c2f	0.022108166
27	0xbb8b76b1	-0.0042560925
28	0xbc03642d	-0.008019489
29	0x3d723f67	0.059142496
30	0xbc9ef072	-0.019401763
31	0xbc560bbe	-0.013064323
32	0x3bf92b1a	0.007604015
33	0xbd28532d	-0.041094948
34	0x3cc24084	0.023712404
35	0xbba8aaad	-0.0051472993
36	0x3cf619c6	0.030041587
37	0x3ba3f85b	0.0050039715
38	0xbbe549c8	-0.006997321
39	0xbd5995ee	-0.0531215
40	0x3d40c312	0.047061034
41	0xbbdc934f	-0.0067314277
42	0xbc969a7a	-0.018384207
43	0xbc631711	-0.01386048
44	0x3cc5f187	0.02416302
45	0xbc362abd	-0.011118588
46	0xbc885da6	-0.016646218
47	0xbc655d9f	-0.013999372
48	0xbd3b2993	-0.045693945
49	0xbbfb4e4c	-0.007669246
50	0x3bfe17df	0.0077543105
51	0xbbf38cc4	-0.007432552
52	0xbbc34b7f	-0.0059599276
53	0x3b9ad8c7	0.004725549
54	0x3b858ce1	0.004075632
55	0xbc365ebb	-0.011130984
56	0xbd51cea2	-0.05122245
57	0xbc9bf0b5	-0.019035676
58	0xbc12dafd	-0.008963344
59	0xbb49c82f	-0.0030789485
60	0x39928530	0.00027946522
61	0x3da6e6c6	0.08149485
62	0xbad41066	-0.0016179204
63	0xbcba9da5	-0.022780249
64	0x3cf24347	0.029573096
65	0xbbb178cd	-0.005416012
66	0xbbc4b2a4	-0.006002741
67	0xbc0988d9	-0.008394443
68	0xbcd4563e	-0.02592003
69	0x3b4f828c	0.0031663505
70	0xbbc4c217	-0.0060045826
71	0xbb95c60e	-0.004570729
72	0xbc27385a	-0.010206306
73	0x3cb97107	0.022636903
74	0x3cb91b2d	0.022595966
75	0xbb49e60e	-0.003080729
76	0x3bc6472b	0.0060509644
77	0x3cf9e486	0.030504476
78	0x3c88b54c	0.016688012
79	0x3c782c9a	0.015147353
80	0xbd2019c7	-0.039087083
81	0xbc3cba67	-0.011519051
82	0x3d0210fa	0.03175447
83	0x3d0c6cfe	0.03428363
84	0xbbe57ca5	-0.007003384
85	0x3d0cfc41	0.034420256
86	0x3d9092f1	0.07059277
87	0xbcc640cf	-0.024200825
88	0xbbc4adca	-0.0060021626
89	0xbbd8e639	-0.0066192416
90	0xbbde1a07	-0.006778005
91	0xbbc4bf5c	-0.006004257
92	0x3ca39390	0.019967824
93	0xbc5e403e	-0.013565121
94	0x3bd093cc	0.006365275
95	0x3b94b5f1	0.0045382907
96	0xbb3b0ec3	-0.0028542734
97	0x3d0209c0	0.03174758
98	0xbbd297fb	-0.006426809
99	0xbd2136f0	-0.039359033
100	0xbc5847d5	-0.01320072
101	0x3c68f5ae	0.014218731
102	0x3ce606a3	0.028079337
103	0x3d20c6ff	0.039252277
104	0xbc02bff1	-0.007980333
105	0xbcef8bf8	-0.029241547
106	0xbba1aa2b	-0.0049336157
107	0x3b1920a5	0.0023365405
108	0xbb2bc648	-0.0026210714
109	0x3c01b753	0.007917243
110	0xbc4ac76d	-0.012376648
111	0xbcd91dc8	-0.026503459
112	0xbcb17a49	-0.021664755
113	0xbba4c448	-0.0050282814
114	0xbbc4ad86	-0.006002131
115	0xbbb5bcf8	-0.0055462085
116	0xbc62bd22	-0.013839038
117	0xbbedb18d	-0.0072538317
118	0x3c9ef11b	0.019402077
119	0xbc2f2d53	-0.0106919585
120	0xbce04160	-0.027374923
121	0xbd50d764	-0.050986663
122	0xbbdcecbd	-0.0067420886
123	0xbc8ffd78	-0.017576918
124	0xbc95b891	-0.018276485
125	0x3d4e93cf	0.05043393
126	0xbbc4c5fe	-0.006005048
127	0x3d7289e1	0.059213523

arith.constant1 f4 [64]
0	0xbab01c83	-0.0013436232
1	0xbc7086e0	-0.014680594
2	0xbc02ffff	-0.007995605
3	0xbcd35679	-0.02579807
4	0xbbc51eec	-0.006015649
5	0x3c85d83b	0.016338458
6	0xbd12578f	-0.035728034
7	0xbcfde4dd	-0.03099292
8	0x391f2426	0.00015176888
9	0xbc95ae17	-0.01827149
10	0x3cc4692c	0.023975931
11	0xbcb5660c	-0.022143386
12	0x3dadcf9a	0.084868625
13	0xbc9ad3b3	-0.018899774
14	0x3b59523d	0.003316059
15	0xbbf3142f	-0.0074181776
16	0xbcff8cca	-0.031195063
17	0xbd02c974	-0.031930402
18	0xbce70559	-0.028200792
19	0xbc4543b1	-0.012040065
20	0xbbcf4e96	-0.006326507
21	0xbc142c71	-0.009043799
22	0xbca6caf5	-0.02036045
23	0xbbc46d04	-0.005994441
24	0x3c817856	0.015804451
25	0xbc963d34	-0.01833973
26	0xbcdba521	-0.026812138
27	0xbc849e7a	-0.016188849
28	0xbcfe1859	-0.03101747
29	0xbbc2aaa8	-0.005940754
30	0x00000000	0.0
31	0xbd0df409	-0.03465656
32	0x3ba1a116	0.004932533
33	0xbcdcd6bd	-0.026957864
34	0xbcb1a833	-0.021686649
35	0xbc0c6d0f	-0.0085709235
36	0x3d769d67	0.060208704
37	0x3d5e1e90	0.054228365
38	0xbcd22804	-0.025653847
39	0xbca6a657	-0.020342989
40	0x00000000	0.0
41	0xbc638691	-0.013887064
42	0xbc3a5d77	-0.011374823
43	0x3d017dbc	0.03161405
44	0xbc5428dd	-0.012949196
45	0x3da439d6	0.08018844
46	0xbccf39c7	-0.025296105
47	0xbc0635bc	-0.008191522
48	0xbc21f789	-0.009885677
49	0xbc406398	-0.011742495
50	0xbcf361a8	-0.029709652
51	0x3da1c1b0	0.07898271
52	0xbbf63f7b	-0.0075148917
53	0x3cd8f367	0.02648325
54	0xbccf6a21	-0.02531916
55	0xbcd333a5	-0.025781462
56	0xbb9e54e8	-0.004831899
57	0xbbb818a6	-0.0056181727
58	0xbc88a3c2	-0.016679648
59	0xbcf6600b	-0.030075094
60	0x3c011791	0.007879154
61	0xbcceceea	-0.025245149
62	0xbd11e2ec	-0.0356168
63	0x3da72633	0.08161583

arith.constant2 f4 [26]
0	0x3d31f6e8	0.04344836
1	0x3c67290b	0.0141089065
2	0x3d241e97	0.040068235
3	0xbb29c97d	-0.002590745
4	0x3d07774c	0.033072755
5	0xbc5d867a	-0.013520831
6	0xbc6298b1	-0.01383035
7	0xbbc6001d	-0.006042494
8	0x3ccccdf8	0.025000557
9	0xbc5f41d1	-0.013626532
10	0x3d2db428	0.04240814
11	0xb958608e	-0.00020635335
12	0x3bd75125	0.0065709525
13	0xbc41c1e8	-0.011826016
14	0x3bd26869	0.006421138
15	0xbd21eee6	-0.039534472
16	0xbd665eee	-0.056242876
17	0xbd1d40e9	-0.03839198
18	0x3c3d346e	0.011548145
19	0xbcb07f38	-0.021545038
20	0x3ce0a069	0.02742024
21	0xbc545bd7	-0.012961349
22	0xbc83589d	-0.016033465
23	0xbc373220	-0.011181384
24	0xbce3f82a	-0.027828295
25	0xbc456b04	-0.01204944

arith.constant3 f4 [64, 3, 3, 32]
0	0xbce3d239	-0.027810203
1	0xbd6657b0	-0.05623597
2	0x3d20fb02	0.03930188
3	0xbcbff400	-0.023431778
4	0xbc6c8843	-0.014436784
5	0xbcb6e876	-0.022327643
6	0x3d023408	0.031787902
7	0x3d2430ed	0.04008572
8	0x3ccaddba	0.02476393
9	0x3d2d0785	0.0422435
10	0x3d9c226e	0.076237544
11	0xbd4ca900	-0.04996586
12	0x3b1204cc	0.0022280691
13	0x3c55de37	0.013053468
14	0x3cd63d92	0.026152406
15	0x3bd42833	0.0064745187
16	0x3d052620	0.032507062
17	0x3d1baa51	0.038004223
18	0x3d5422fe	0.051791184
19	0xbdab81f5	-0.08374397
20	0xbd222366	-0.03958454
21	0x3dae10e1	0.08499313
22	0x3c90d596	0.01767997
23	0x3da774a7	0.081765465
24	0x3e28dfd6	0.16491637
25	0x3c89cc58	0.016821072
26	0x3c936411	0.017992051
27	0x3d2f7c5c	0.042843208
28	0x3d94145c	0.07230446
29	0x3d90bbed	0.07067094
30	0x3dcb94be	0.0994048
31	0xbd7ed32b	-0.062213104
32	0xbc0a1231	-0.008427189
33	0xbd6855a0	-0.056722283
34	0x3cccd672	0.0250046
35	0xbd84e1c2	-0.064883724
36	0xbdb1bb1d	-0.08678267
37	0xbcc733b6	-0.02431665
38	0x3dd03a4d	0.1016737
39	0x3def44ac	0.1168302
40	0x3e0087cb	0.12551801
41	0x3e211544	0.15730768
42	0xbc3b4135	-0.011429121
43	0x3e0d0979	0.13773145
44	0x398c176a	0.00026720326
45	0x3a08cf89	0.00052189134
46	0x3d970eb1	0.07375849
47	0x3e03d21d	0.1287312
48	0xbd8bf448	-0.06833702
49	0xbc0e0e37	-0.008670381
50	0x3ddf13e0	0.10892463
51	0x3d98db88	0.07463747
52	0xbcfd17ae	-0.03089508
53	0x3e3f61fd	0.18689723
54	0x3d6e5024	0.058181897
55	0xbd4f74d3	-0.05064852
56	0x3d0350ab	0.032059353
57	0x3caa7f64	0.020812698
58	0x3db359f8	0.087573946
59	0x3deaf8a0	0.11473203
60	0x3e13fb0f	0.1445124
61	0x3d8542e2	0.065068975
62	0x3cd0acff	0.025473116
63	0xbba7cd30	-0.005120896
64	0x3c57fee6	0.013183331
65	0xbda68bb6	-0.081321165
66	0xbb60592f	-0.0034232845
67	0x3d52ccfc	0.05146502
68	0x3d5d351b	0.054005723
69	0x3a3db857	0.00072372466
70	0x3e511c1a	0.20420876
71	0x3d2bed53	0.041974377
72	0x3e267f31	0.16259457
73	0x3e3e97c0	0.18612576
74	0x3cf2cada	0.029637743
75	0x3e4d78bc	0.20065588
76	0x3d0ec70e	0.034857802
77	0x3d04cd93	0.032422613
78	0x3e7fbdff	0.24974822
79	0x3e18214b	0.1485645
80	0x3d21afae	0.03947418
81	0x3d6af129	0.057358894
82	0x3dd371d8	0.10324448
83	0x3e79d69b	0.24398272
84	0xbd201b5c	-0.039088592
85	0x3dff8eca	0.12478407
86	0x3d9ab793	0.07554545
87	0x3daae848	0.083450854
88	0x3cb7d405	0.022439966
89	0xbddc0ad1	-0.107442506
90	0x3da8d1a3	0.0824311
91	0x3da36bba	0.079795316
92	0x3d2719c6	0.040796064
93	0xbd3cb0c6	-0.04606702
94	0x3ce18869	0.027530866
95	0xbd15d8b0	-0.036583602
96	0x3c2817d9	0.010259592
97	0x3c8e7820	0.017391264
98	0xbd20ef7c	-0.03929089
99	0x3da32fcc	0.07968101
100	0xbd6abb51	-0.057307545
101	0x3c80ece0	0.01573795
102	0x3d42c78c	0.047553584
103	0xbb90ba59	-0.0044167456
104	0x3d3692a3	0.044573437
105	0xbcdcdf76	-0.026962023
106	0xbd4c3f28	-0.049864918
107	0xbde83bbb	-0.11339518
108	0x3d526b0d	0.051371623
109	0xbb5078ee	-0.003181036
110	0xbd251ac1	-0.040308718
111	0x3c95028a	0.018189687
112	0xbdbf4861	-0.09339977
113	0x3d90dfd8	0.07073945
114	0xbd2f22e7	-0.042757895
115	0xbd4dfdcc	-0.050290868
116	0xbc93032c	-0.017945848
117	0x3c981f90	0.018569738
118	0x3cb05b2a	0.021527845
119	0xbd830211	-0.063968785
120	0x3de27a77	0.110585146
121	0x3e4bb889	0.19894613
122	0x3e230a0d	0.15921803
123	0xbc2ee0cc	-0.010673713
124	0x3d819672	0.06327523
125	0x3e438def	0.19097112
126	0x3e2e7d18	0.17039907
127	0x3d8c223d	0.06842468
128	0xb9151fd2	-0.00014221601
129	0xbbaaedb7	-0.005216326
130	0xbd21c1a9	-0.03949133
131	0x3d75cb46	0.06000831
132	0xbd205cee	-0.039151125
133	0xb95de600	-0.00021161884
134	0x3e26ab3e	0.16276261
135	0x3e086e0f	0.13323234
136	0x3d9f0cfd	0.07766149
137	0x3e2edaa4	0.17075592
138	0x3caa6109	0.020798223
139	0xbb983dda	-0.004646045
140	0xbe0309b5	-0.12796672
141	0x3a3c44f8	0.0007181908
142	0x3c4fd733	0.012685585
143	0xbc9724e6	-0.018450212
144	0xba8dd63f	-0.0010821297
145	0x3cd39b90	0.025831014
146	0x3de66127	0.11248999
147	0x3d1776b4	0.03697844
148	0xbd62457f	-0.055242058
149	0x3e16754c	0.14693183
150	0x3d99e4a8	0.07514316
151	0x3bb94dbd	0.005655019
152	0x3e0ae64e	0.13564417
153	0x3d5d049a	0.053959467
154	0x3d1366be	0.035986654
155	0x3db7d891	0.08976854
156	0x3da75e27	0.08172255
157	0x3d870520	0.065927744
158	0x3d338853	0.04383118
159	0xbd09ffb6	-0.03369113
160	0x3cefc971	0.02927086
161	0xbcb95696	-0.022624295
162	0x3daa2327	0.08307486
163	0xbdd255c5	-0.102702655
164	0x3ccff7da	0.02538674
165	0x3d698195	0.057008345
166	0x3e0388aa	0.12845102
167	0x3e250b3f	0.16117571
168	0xbb19bf6a	-0.002346004
169	0x3e271c44	0.16319376
170	0x3e1741d8	0.14771211
171	0x3dac78d7	0.08421486
172	0xbdbef893	-0.093247555
173	0xbc569a97	-0.0130983805
174	0x3e0d6133	0.1380661
175	0x3dca453f	0.09876489
176	0xbca710a8	-0.020393685
177	0xbdca2569	-0.09870417
178	0x3daa0612	0.08301939
179	0x3e1fe20a	0.15613571
180	0xbdf1de54	-0.11809984
181	0x3ddde23d	0.10834167
182	0x3defb9f8	0.117053926
183	0xbc225ecc	-0.009910297
184	0xbd44dcae	-0.04806202
185	0xbd54771a	-0.051871397
186	0x3d1cabca	0.03824977
187	0x3e2ed870	0.17074752
188	0x3da3b594	0.07993618
189	0x3bc57b28	0.0060266443
190	0x3ac7cc44	0.0015243371
191	0xbd2b2616	-0.04178437
192	0xbdc4e110	-0.0961324
193	0x3d8c704d	0.06857357
194	0xbd4011db	-0.04689203
195	0xbd0b18a2	-0.03395904
196	0xbc93e293	-0.018052375
197	0x3da14ab5	0.07875577
198	0x3d574168	0.05255261
199	0xbca16a53	-0.01970402
200	0xbcccdc4b	-0.025007388
201	0x3d037e15	0.032102663
202	0x3d09cb63	0.03364123
203	0x3bb98559	0.005661648
204	0x3d8af422	0.06784846
205	0x3bc355a4	0.005961137
206	0xbd0da6ad	-0.034582783
207	0x3d6141a7	0.05499425
208	0xbd9b0ce6	-0.075708196
209	0x3c5352e8	0.012898184
210	0xbcb0ca50	-0.021580845
211	0x3d2309e2	0.039804347
212	0x3d3c8026	0.04602065
213	0x3c951725	0.018199513
214	0xbd487ea5	-0.048948903
215	0xbdef76a0	-0.11692548
216	0x3db9b618	0.09067935
217	0x3e1e96c3	0.15487199
218	0x3dbe1792	0.092818394
219	0x3d5549e2	0.052072413
220	0xb9ddf1c7	-0.00042332543
221	0x3de2db24	0.11076954
222	0x3dccdf61	0.10003544
223	0xbcddaac0	-0.027058959
224	0x3d8cac8e	0.0686885
225	0x3bdec350	0.0067981854
226	0x3b014817	0.0019726807
227	0x3a4b6f71	0.00077604415
228	0xbd409a02	-0.047021873
229	0xbd59737c	-0.05308865
230	0xbc93a3c6	-0.01802243
231	0x3dd93b0c	0.106069654
232	0x3c5cc670	0.013475046
233	0xbdb5dbd7	-0.08879822
234	0x3e2bd96e	0.16782162
235	0x3c08d779	0.008352154
236	0x3c062905	0.008188491
237	0x3cf3f09c	0.029777817
238	0xbc12c4a1	-0.008958013
239	0x3c71eef5	0.014766444
240	0xbdf8dfd9	-0.121520706
241	0xbde62ccf	-0.11239015
242	0x3deb76d9	0.11497278
243	0xbcd64b95	-0.026159087
244	0xbd1f10fd	-0.03883456
245	0x3cd3db20	0.025861323
246	0x3d9b0a11	0.075702794
247	0x3d1d96b3	0.038473796
248	0x3e4cbd79	0.19994153
249	0x3e467d60	0.19383764
250	0x3d5ff70b	0.054678958
251	0xbd38f7a6	-0.04515805
252	0xbe06db78	-0.13169658
253	0x3d932c04	0.0718613
254	0x3e2a88ce	0.1665375
255	0xbd493c5b	-0.049129825

arith.constant4 f4 [26, 128]
0	0xbe81ae61	-0.25328353
1	0x3e5a11b2	0.21295813
2	0x3d1a1555	0.037618
3	0x3e48b53c	0.19600385
4	0xbdfcd9e5	-0.123462476
5	0xbe3beff8	-0.1835326
6	0x3e2b43bd	0.16725059
7	0xbd6aea1c	-0.05735217
8	0xbe1e41c4	-0.15454775
9	0xbe23fd9b	-0.16014712
10	0xbe41138b	-0.18855111
11	0xbbdee2d4	-0.0068019424
12	0x3e09ff27	0.13476239
13	0x3e06a004	0.13146979
14	0xb8c48349	-9.370462e-05
15	0x3e44b516	0.19209704
16	0x3dc25647	0.09489112
17	0x3e5367e2	0.20645097
18	0x3c6dd35d	0.014515725
19	0xbd92a672	-0.07160653
20	0x3ddd9298	0.10818976
21	0x3c833985	0.016018638
22	0xbc4ad99e	-0.012380986
23	0xbdb544d9	-0.08851022
24	0x3d2cc2fc	0.04217814
25	0xbe1eebcb	-0.15519635
26	0xbd6a5273	-0.057207536
27	0x3e109c34	0.14122087
28	0xbddd448e	-0.108040914
29	0x3db351e2	0.08755852
30	0xbe95b8e7	-0.29242632
31	0x3e668f35	0.22515567
32	0x3e007f3b	0.12548535
33	0xbe861d91	-0.26194432
34	0x3e2ea0e1	0.17053558
35	0x3e528ee3	0.2056232
36	0x3e59223b	0.21204464
37	0xbe301834	-0.17196733
38	0x3e152199	0.14563598
39	0xbebea7b0	-0.3723731
40	0x3dc6da46	0.09709601
41	0x3db3584e	0.08757077
42	0xbe0c74b0	-0.13716388
43	0xbe71fbe9	-0.23631252
44	0x3df4864d	0.11939678
45	0xbe8951d8	-0.26820254
46	0x3d27c563	0.040959727
47	0xbe32122d	-0.17389746
48	0xbddc32f2	-0.107519045
49	0xbe019b1d	-0.12656827
50	0xbd90a69e	-0.0706303
51	0xbdb8ad66	-0.09017448
52	0x3e07caa7	0.132609
53	0xbe60e773	-0.21963291
54	0x3d182fee	0.037155084
55	0xbe47feeb	-0.19530837
56	0x3dd6c8af	0.10487496
57	0x3d9c4395	0.07630078
58	0xbd978c22	-0.07399775
59	0x3e2e785b	0.170381
60	0x3e418731	0.18899228
61	0x3e565224	0.20929772
62	0xbe44a154	-0.19202167
63	0xbe6aff81	-0.2294903
64	0xbd8515f2	-0.06498326
65	0xbd795776	-0.060874425
66	0xbe078095	-0.13232644
67	0xbe42858f	-0.18996261
68	0x3d307e7f	0.043089386
69	0x3e27376a	0.16329733
70	0xbd21fdbc	-0.03954862
71	0x3e3b1560	0.18269873
72	0xbe7fd5a3	-0.2498384
73	0x3e1709a8	0.14749777
74	0x3e51bbb4	0.2048176
75	0xbcedccd2	-0.02902833
76	0xbe1fb545	-0.15596493
77	0xbdb59db0	-0.08867967
78	0x3ddd644b	0.10810145
79	0xbd59a78c	-0.0531383
80	0x3db52cc0	0.08846426
81	0xbd1ec51f	-0.038762208
82	0x3e5fdbbc	0.21861166
83	0xbe04897e	-0.12943074
84	0xbe46d8ad	-0.19418593
85	0xbc8869f2	-0.016652081
86	0x3cec6dbe	0.028860923
87	0xbe0bb8ee	-0.13644764
88	0xbd94793c	-0.07249686
89	0x3a9332c7	0.0011230343
90	0x3ceab76f	0.028651921
91	0x3dc4ff70	0.09619033
92	0x3d19f688	0.037588626
93	0x3c5f3e67	0.013625718
94	0xbd2ff6ab	-0.04295985
95	0xbe727389	-0.23676886
96	0xbdcbee4c	-0.09957561
97	0x3d1b2dfb	0.037885647
98	0x3e01cf7c	0.12676805
99	0x3c81e867	0.015857888
100	0xbb0b266f	-0.0021232625
101	0x3e9da304	0.30788434
102	0x3e6a7f15	0.2290004
103	0x3b82cc3a	0.003991631
104	0x3e37e4f2	0.1795843
105	0xbde4ed95	-0.11178128
106	0xbe325421	-0.17414905
107	0xbdd6e437	-0.10492747
108	0xbcd32eff	-0.025779245
109	0x3de05877	0.10954373
110	0x3e402b3e	0.18766496
111	0xbe702c20	-0.23454332
112	0xbe6bdf4f	-0.23034404
113	0xbe2ccba2	-0.16874555
114	0xbc828fe0	-0.015937746
115	0xbd8375c2	-0.06418945
116	0xbb63f812	-0.0034785313
117	0xbce9cbe2	-0.028539602
118	0xbd2c90c8	-0.04213026
119	0x3dc84764	0.09779242
120	0xbcc7a51c	-0.024370722
121	0xbe9b4627	-0.3032696
122	0xbe3148db	-0.17312948
123	0xbe3bda6e	-0.18345043
124	0xbe059c19	-0.13047828
125	0x3e027caf	0.12742876
126	0x3dead920	0.114671946
127	0x3e61d46b	0.22053687
128	0xbe5789ed	-0.21048708
129	0xbd485738	-0.048911303
130	0xbda108aa	-0.07862981
131	0xbe7a92bf	-0.24470042
132	0xbda5dba6	-0.08098535
133	0xbde1259b	-0.10993501
134	0x3e55abd0	0.20866323
135	0xbdb7bb8c	-0.089713186
136	0xbd65b387	-0.056079414
137	0xbd47eac2	-0.048807867
138	0x3d4e9639	0.050436232
139	0x3e17ad49	0.14812197
140	0x3e557cde	0.20848414
141	0x3dd38263	0.10327604
142	0x3d2466d5	0.04013713
143	0xbd7fd363	-0.062457453
144	0x3db455b2	0.088054076
145	0xbe3156fa	-0.17318335
146	0xbe186569	-0.14882435
147	0x3e2f8c9e	0.17143485
148	0x3cd72d87	0.026266826
149	0xbd9c16d2	-0.0762154
150	0xbe8fcaeb	-0.28084502
151	0xbe7e7ec5	-0.24853046
152	0xbcc75e8c	-0.024337076
153	0xbe38353b	-0.17989056
154	0xbdb29177	-0.087191515
155	0x3dd898fd	0.10576055
156	0xbe29cac2	-0.16581252
157	0xbe18b161	-0.14911415
158	0xbe509ebd	-0.20373054
159	0xbd83edcc	-0.064418405
160	0xbe23d099	-0.15997542
161	0x3c85f8c3	0.01635397
162	0xbdd80806	-0.10548405
163	0x3d96b9df	0.07359671
164	0x3e04de19	0.12975349
165	0xbe48e7b6	-0.1961964
166	0x3d40d836	0.047081195
167	0xbe391582	-0.18074611
168	0x3e1d5c60	0.1536727
169	0xbd5e732b	-0.05430905
170	0xbe28ae52	-0.16472748
171	0xbe3ed34f	-0.18635295
172	0xbc9b0a36	-0.018925767
173	0xbd3728ca	-0.044716634
174	0x3b311fc0	0.002702698
175	0x3e35f9c5	0.17771061
176	0xbe672286	-0.22571763
177	0xbe16f1ab	-0.14740627
178	0x3e52c180	0.20581627
179	0xbe292de3	-0.1652141
180	0x3e1d6b05	0.15372856
181	0xbe822346	-0.25417536
182	0x3c1c8330	0.009552762
183	0xbd421b2d	-0.047389198
184	0x3da065dd	0.07831929
185	0x3dc3d425	0.09561948
186	0xbe471e2e	-0.19445106
187	0xbde666e0	-0.112500906
188	0x3d25ce42	0.040479906
189	0x3e297ddc	0.16551918
190	0x3def167c	0.116742104
191	0xbdbd39df	-0.09239554
192	0x3e299b79	0.16563214
193	0xbd412c5c	-0.047161445
194	0xbe1dee91	-0.15423037
195	0xbe4bb889	-0.19894613
196	0x3e3b5860	0.18295431
197	0x3e32af51	0.1744969
198	0xbc45e878	-0.012079351
199	0xbccf4a8f	-0.025304107
200	0xbd95a0e4	-0.07306078
201	0xbe35cb6e	-0.17753384
202	0x3e53d658	0.20687234
203	0x3e21ec32	0.15812758
204	0x3dfa8e6a	0.122341946
205	0x3da43d7f	0.08019542
206	0x3bb90820	0.0056467205
207	0x3e3ebd7b	0.18626969
208	0xbea18525	-0.31546894
209	0xbd2194a7	-0.039448407
210	0x3e318484	0.17335707
211	0xbdb4029a	-0.08789559
212	0xbd4103c5	-0.047122736
213	0x3cabfc08	0.020994201
214	0x3e349fe8	0.17639124
215	0x3e83724c	0.2567314
216	0x3c80637e	0.015672442
217	0xbe29b432	-0.16572645
218	0xbd234026	-0.0398561
219	0x3d0f527d	0.034990776
220	0x3e1c3153	0.1525319
221	0xbdbd6ec8	-0.092496455
222	0xbe8b1028	-0.27160764
223	0x3d612af2	0.054972596
224	0x3cc7a735	0.024371723
225	0x3d7667d0	0.060157597
226	0xbc5f436d	-0.013626915
227	0x3cdb6c37	0.026785
228	0xbe06d255	-0.13166173
229	0xbe75c952	-0.24002579
230	0xbcd4e494	-0.0259879
231	0x3e74f331	0.23920895
232	0x3e0214f2	0.12703303
233	0xbe00f4d3	-0.12593393
234	0xbe31f1dc	-0.17377418
235	0x3dd526a3	0.1040776
236	0x3e02aff9	0.1276244
237	0xbd5de7d5	-0.05417617
238	0x3de69c61	0.11260296
239	0x3d8bccb7	0.06826156
240	0xbe2b817c	-0.16748613
241	0x3b8a5200	0.004221201
242	0xbd35518d	-0.044267226
243	0xbdf188d6	-0.117936775
244	0xbe3d315e	-0.18475863
245	0xbe011c8d	-0.12608548
246	0x3c93f339	0.018060314
247	0x3c8087e6	0.015689801
248	0xbe72639b	-0.23670809
249	0xbe7ea914	-0.24869186
250	0xbdfe7e33	-0.12426414
251	0x3df74770	0.120741725
252	0xbcdd7e8d	-0.027037883
253	0xbe1d73c6	-0.15376195
254	0x3de4f3ec	0.11179337
255	0x3dc2ab03	0.09505274

arith.constant5 f4 [128, 1600]
0	0x3d61a521	0.05508912
1	0x3caa3853	0.02077881
2	0xbc4acb2b	-0.012377541
3	0xbd603ee9	-0.054747496
4	0xbc87d6be	-0.01658189
5	0x3d3dd5bd	0.046346415
6	0xbce325fc	-0.027728073
7	0xbc9deef9	-0.01927899
8	0x3c167622	0.0091834385
9	0xbd080379	-0.033206437
10	0xbd737d43	-0.05944563
11	0x3cf08b61	0.029363336
12	0xbc97c18b	-0.018524906
13	0x3d86515e	0.06558488
14	0x3df13da9	0.11779339
15	0x3d059d77	0.032620873
16	0x3cad24ae	0.021135654
17	0xbd93b020	-0.072113276
18	0x3d201f0a	0.0390921
19	0xbbcd7a32	-0.0062706703
20	0xbb6d3c40	-0.0036199242
21	0xbdc4aba0	-0.09603047
22	0xbc8174f9	-0.015802847
23	0x3cb8eff2	0.022575352
24	0x3cad9e35	0.021193603
25	0x3ccc4216	0.024933856
26	0x3ce65510	0.028116733
27	0xbd2d1b93	-0.042262625
28	0xbcfd996f	-0.030956952
29	0xbd146207	-0.0362263
30	0x3caadb2e	0.020856466
31	0x3d328647	0.043585088
32	0x3db3f5c1	0.08787108
33	0xbcdcc828	-0.02695091
34	0x3c76844b	0.01504619
35	0xbc0dc924	-0.008653913
36	0xbc8a86d8	-0.016910002
37	0x3c74d338	0.014942937
38	0xbc87ef8a	-0.016593713
39	0xbca30cd2	-0.019903574
40	0xbc679220	-0.01413396
41	0x3ce6045f	0.028078256
42	0x39f4c7c7	0.00046688152
43	0x3b198b0b	0.0023428823
44	0xbca6ed9a	-0.02037697
45	0xbd8ba8d0	-0.06819308
46	0x3d34e20d	0.04416089
47	0x3d0f4aa7	0.034983303
48	0xbcb91f56	-0.02259795
49	0x3d83d367	0.06436806
50	0x3ce70992	0.028202806
51	0xbd087b44	-0.03332068
52	0x3cfa027a	0.030518759
53	0x3dc9735a	0.09836455
54	0xbd2aa0e5	-0.041657347
55	0xbb468bae	-0.0030295658
56	0x3d3f1447	0.046650197
57	0x3c06a5ec	0.00821827
58	0xbb160710	-0.0022892393
59	0x3d2c0b27	0.042002823
60	0xbd0d8ceb	-0.034558218
61	0xbd283ba4	-0.041072503
62	0xbc6aedd9	-0.014338934
63	0x3ca5dfdf	0.020248352
64	0x3d7f983e	0.06240105
65	0xbcd3c5ce	-0.025851157
66	0xbd1221c5	-0.035676736
67	0xbc8831a1	-0.016625227
68	0xbd489d7a	-0.048978306
69	0xbd1bd23c	-0.038042292
70	0x3d2e52b0	0.042559326
71	0xbcaf75bd	-0.021418447
72	0x3cc49f4a	0.024001736
73	0x3d2e1403	0.042499553
74	0xbdf00144	-0.117189914
75	0xbca4021f	-0.020020543
76	0xbccc76d4	-0.024959005
77	0xbcf6ec52	-0.030141983
78	0x3e0fb204	0.14032751
79	0x3c8bc79e	0.017062958
80	0x3d09513d	0.03352474
81	0xbc1affaf	-0.009460374
82	0x3da0a97b	0.07844826
83	0x3dec3f77	0.115355425
84	0xbb65e080	-0.003507644
85	0x3acf486c	0.001581443
86	0x3d4fa473	0.05069394
87	0xbc3ba74c	-0.011453461
88	0x3b9f4f79	0.004861769
89	0x3da2e064	0.07952955
90	0x3d3c757c	0.04601048
91	0x3cb64152	0.022247944
92	0x3ad79947	0.0016448878
93	0xbb89df00	-0.004207492
94	0x3d205ad1	0.03914911
95	0xbccf85e5	-0.0253324
96	0x3d6d8c46	0.057995103
97	0x3b4329dd	0.002977959
98	0xba81b516	-0.0009895887
99	0x3d2e8efb	0.042616826
100	0xbc066503	-0.008202794
101	0xbd3f3944	-0.046685472
102	0xbd476205	-0.048677463
103	0xba958e3e	-0.0011410189
104	0xbc054adc	-0.008135524
105	0x3d6e8933	0.058236312
106	0x3d1cbb19	0.038264368
107	0x3d500938	0.05079004
108	0x3d47d88e	0.048790507
109	0xbd510e72	-0.051039167
110	0x3d248b0e	0.040171675
111	0x3d145595	0.03621443
112	0xbb1ecda4	-0.0024231458
113	0x3b7b2ad4	0.0038325088
114	0xbcf41188	-0.029793516
115	0xbd9fa2be	-0.077947125
116	0x3d08d235	0.033403594
117	0x3cddc70f	0.027072458
118	0xbd878fff	-0.06619262
119	0x3c75ed81	0.015010239
120	0x3d200735	0.039069373
121	0x3bc5a748	0.0060319044
122	0xbd6a52d6	-0.057207905
123	0xbac36260	-0.0014906637
124	0xbcb5931f	-0.02216488
125	0xbd49ec39	-0.049297545
126	0xbb0debad	-0.0021655366
127	0xbd48f584	-0.049062267
128	0xbc9e90ee	-0.019356217
129	0xbb695df8	-0.0035608988
130	0x3cfb7ead	0.030700052
131	0xbca400a9	-0.020019846
132	0xb9103c00	-0.00013755262
133	0x3d505028	0.050857693
134	0xbca59f68	-0.020217612
135	0xbc174f2b	-0.009235184
136	0x3d4a690a	0.04941658
137	0x3e0490d2	0.1294587
138	0x3c99fc55	0.01879708
139	0x3bbbc928	0.005730767
140	0x3ce6941d	0.028146798
141	0xbceb4e57	-0.028723879
142	0x3d21982b	0.03945176
143	0x3d054bfd	0.03254317
144	0xbccc57aa	-0.024944145
145	0x3cb917f0	0.022594422
146	0xbc8dd5a0	-0.017313778
147	0x3ce8273c	0.02833902
148	0x3c90c49e	0.01767188
149	0x3c21fc19	0.009886765
150	0xbd71599c	-0.05892335
151	0x3d4d8ef3	0.050185155
152	0x3bc067b3	0.005871737
153	0xbc940a70	-0.018071383
154	0x3c4dd38f	0.0125626465
155	0xbd8ad5c0	-0.06779051
156	0xbd18ff6c	-0.037352964
157	0xbcf03538	-0.029322252
158	0x3d001e7d	0.031279076
159	0xbc462a86	-0.012095099
160	0x3d998a59	0.07497091
161	0xbd9028ff	-0.070390694
162	0xbce8397d	-0.028347725
163	0xbd08349c	-0.033253297
164	0x3c4138dc	0.0117933415
165	0xbb9efc1a	-0.00485183
166	0xbd96eb75	-0.073691286
167	0xbc810ab5	-0.015752176
168	0xbd6d67bd	-0.05796026
169	0x3ca70a70	0.02039072
170	0xbc4467d8	-0.011987649
171	0x3b8dbe87	0.004325691
172	0x3d9c5b72	0.07634629
173	0xbcf62a5d	-0.030049497
174	0xbaa9101e	-0.001289848
175	0xba488e80	-0.00076506287
176	0x3da8a836	0.08235209
177	0x3d5e3499	0.05424938
178	0x3d03ba2c	0.03215997
179	0xbc971339	-0.018441783
180	0x3cc6d076	0.024269324
181	0x3d25a641	0.040441755
182	0x3caef4fa	0.021357048
183	0xbbce343e	-0.006292849
184	0xbd2306c1	-0.039801363
185	0x3c64bdec	0.0139612965
186	0xbda23019	-0.0791933
187	0xbce9280f	-0.028461484
188	0xbd4e2e4b	-0.050337117
189	0x3c312243	0.010811391
190	0x3c46f26f	0.012142762
191	0xbd93b9aa	-0.07213147
192	0xbcdf27f7	-0.027240736
193	0xbbc93ec1	-0.006141514
194	0xbd945e77	-0.0724458
195	0x3d002d28	0.031293064
196	0xbd5d414d	-0.054017354
197	0xbdbf9601	-0.09354783
198	0xbd522e69	-0.05131379
199	0xbce07481	-0.027399303
200	0xbc86e692	-0.016467366
201	0xbb67d8fe	-0.003537714
202	0x3dc4dc50	0.09612334
203	0x3d001a4d	0.031275082
204	0x3c9fbe88	0.019500032
205	0x3c98da81	0.018658878
206	0x3d9c2cc4	0.07625726
207	0xbce3908e	-0.02777889
208	0xbc77349a	-0.015088225
209	0x3cba996d	0.022778237
210	0xbd2e6523	-0.04257692
211	0x3dc9f4cf	0.09861147
212	0xbd2a1a20	-0.04152882
213	0x3c9a012a	0.018799383
214	0xbcedc007	-0.02902223
215	0xbc6b02a8	-0.014343895
216	0x3b1873b6	0.0023262328
217	0x3d8fad45	0.070154704
218	0xbd7f47fb	-0.062324505
219	0xbd636c1d	-0.055523027
220	0x3c7eac0d	0.01554395
221	0xbc96e1bc	-0.018418185
222	0xbcb86d32	-0.022513006
223	0xbc8eb15a	-0.017418552
224	0x3c4f1597	0.012639425
225	0x37e3b3e6	2.714428e-05
226	0xbdc7430d	-0.09729586
227	0x3caa2a52	0.020772133
228	0xbd192fa4	-0.03739895
229	0x3c2bcc38	0.010485701
230	0xbdb02853	-0.08601441
231	0xbd1a453e	-0.03766369
232	0x3ccdf346	0.025140416
233	0x3d90098c	0.07033071
234	0xbd42f231	-0.047594253
235	0x3db35f09	0.08758361
236	0x3d1c6fb4	0.038192466
237	0xbbf88a4c	-0.0075848456
238	0x3c22d412	0.009938257
239	0x3d07da5b	0.033167224
240	0xbd33c78e	-0.043891482
241	0x3d198667	0.03748169
242	0x3d43fc6d	0.047848154
243	0x3cd17580	0.025568724
244	0x3b42ed70	0.0029743575
245	0xbcfa08be	-0.030521747
246	0xbd0e3375	-0.034717042
247	0x3c3b1022	0.011417421
248	0x3d1c49f1	0.038156454
249	0x3d1f1719	0.038840387
250	0xbd9e2bf8	-0.0772323
251	0xbc68d4c9	-0.014210888
252	0xbb932fa3	-0.0044917627
253	0xbcae1b18	-0.021253154
254	0xbca58660	-0.020205677
255	0xbd17efb8	-0.037093848

sequential_1/conv2d_1/convolution f4 [32, 3, 3, 1]
0	0xbd9c9623	-0.07645824
1	0xbe814c57	-0.25253555
2	0x3db1f85b	0.08689948
3	0xbe0c3768	-0.13693011
4	0xbcefe989	-0.029286163
5	0x3e216a2c	0.15763158
6	0x3d94a377	0.07257741
7	0x3dad1963	0.08452108
8	0x3d871b86	0.065970466
9	0xbde6d880	-0.11271763
10	0x3df186db	0.117933
11	0xbdeba337	-0.1150574
12	0xbe02342d	-0.12715216
13	0xbd9ac59b	-0.075572215
14	0x3d035328	0.032061726
15	0xbe02ccf8	-0.12773502
16	0xbd661352	-0.05617077
17	0xbd947b87	-0.072501235
18	0xbe51697b	-0.20450394
19	0xbd87b142	-0.06625606
20	0x3d017461	0.03160513
21	0xbe40dd81	-0.18834497
22	0x3be39d25	0.0069462233
23	0x3de137ce	0.10996972
24	0x3e147b3c	0.14500135
25	0x3e3a48d2	0.18191841
26	0xbd51fde6	-0.051267527
27	0x3e4597b5	0.19296153
28	0x3e2af922	0.16696599
29	0x3cec6600	0.028857231
30	0x3e1f88ec	0.15579575
31	0x3d8dadb6	0.06917898
32	0x3ca7ad56	0.020468395
33	0x3c481a3d	0.012213287
34	0xbe239043	-0.15973
35	0xbe69349b	-0.22773974
36	0xbe32daf9	-0.17466344
37	0xbd9ed4b3	-0.07755413
38	0x3d402a25	0.046915192
39	0x3c906d59	0.017630266
40	0x3db82703	0.08991816
41	0xbd762cfd	-0.060101498
42	0x3dc6667c	0.09687516
43	0x3e018d18	0.12651479
44	0x3e16854b	0.14699285
45	0xbe10665f	-0.14101551
46	0xbe147cb4	-0.14500695
47	0xbd9e9ee7	-0.07745152
48	0x3d91310e	0.070894346
49	0xbc55b650	-0.013043955
50	0x3d826084	0.06366065
51	0xbd62ae14	-0.055341795
52	0xbd158c3a	-0.036510684
53	0xbe15693d	-0.14590926
54	0x3e378642	0.17922309
55	0x3e2a0aab	0.16605632
56	0x3dadb45b	0.08481666
57	0xbd166d59	-0.036725376
58	0xbd07f068	-0.033188254
59	0xbd946b8a	-0.07247074
60	0xbe374884	-0.17898756
61	0xbe51ae59	-0.20476665
62	0xbd85a527	-0.06525641
63	0xbe556c1b	-0.2084202
64	0xbe7860e6	-0.24255714
65	0xbe0d8a09	-0.13822187
66	0xbda8130d	-0.08206759
67	0xbda08136	-0.07837145
68	0x3cd0736e	0.025445666
69	0x3e5fbf5b	0.2185034
70	0x3e5b5a7c	0.21421236
71	0x3e53a20f	0.20667289
72	0x3e4a1a82	0.19736674
73	0xbb884dc2	-0.00415966
74	0x3d976247	0.07391792
75	0xbc9bd349	-0.019021647
76	0xbcd8b268	-0.026452258
77	0x3c0cd4f2	0.008595692
78	0xbdd1951b	-0.10233518
79	0xbdbd6506	-0.09247784
80	0xbd7d035e	-0.06177079
81	0x3e6f5bad	0.23374815
82	0xbd1b6eae	-0.03794735
83	0x3e54b454	0.20771915
84	0xbd22d9fd	-0.03975867
85	0x3d559304	0.05214216
86	0x3d0fae14	0.035078123
87	0xbe0f93aa	-0.14021173
88	0xbe3a783d	-0.1820993
89	0xbe338566	-0.17531356
90	0xbc49fd0b	-0.012328397
91	0xbe5a7a01	-0.21335603
92	0xbd4c4f08	-0.049880058
93	0xbe28a85f	-0.16470478
94	0xbd21fc58	-0.039547294
95	0x3d598fc3	0.053115617
96	0x3dce8e64	0.100857526
97	0x3e207c35	0.15672381
98	0x3dae2356	0.085028335
99	0xbdafdc7e	-0.085869774
100	0x3e280644	0.1640864
101	0x3e650902	0.22366717
102	0xbe193945	-0.14963253
103	0x3daad9f7	0.08342355
104	0xbd9be3fa	-0.076118425
105	0xbdaf0798	-0.0854637
106	0xbe368b97	-0.17826687
107	0x3d904c01	0.070457466
108	0x3c829e21	0.015944542
109	0xbdb5dfb7	-0.08880561
110	0x3d737e7c	0.059446797
111	0x3e24b782	0.16085628
112	0x3e1f8c1f	0.15580796
113	0x3dc30735	0.09522859
114	0xbd90c8a6	-0.07069521
115	0x3e06625f	0.13123463
116	0xba796efa	-0.0009515133
117	0xbdb8fac6	-0.09032206
118	0x3d9628d6	0.073320076
119	0x3db42867	0.08796769
120	0x3dd65bd9	0.10466737
121	0xbca77186	-0.020439874
122	0x3e0560b7	0.13025175
123	0x3e22a83c	0.15884489
124	0x3dc15485	0.09439949
125	0xbd4a93d8	-0.0494574
126	0x3d9394f9	0.07206149
127	0x3e5023e3	0.2032619
128	0x3e050afe	0.12992474
129	0xbd811906	-0.06303601
130	0xbd6f0b20	-0.05836022
131	0x3e157bf5	0.14598067
132	0xbe3e2946	-0.18570432
133	0xbe5274de	-0.20552394
134	0xbdbb2c78	-0.09139341
135	0x3db09ba7	0.08623438
136	0x3dbd30e2	0.09237839
137	0x3e5cc16d	0.21558161
138	0xbd896ae6	-0.067098424
139	0x3da8e42d	0.08246646
140	0xbc765460	-0.015034765
141	0xbe3e5723	-0.18587928
142	0xbe7bc380	-0.24586296
143	0x3bed5c33	0.007243657
144	0x3e2d5805	0.16928108
145	0x3daef2e2	0.0854242
146	0x3e200655	0.15627415
147	0x3e253a84	0.16135603
148	0xbdb5895c	-0.0886409
149	0x3e150108	0.14551175
150	0xbe04e695	-0.12978585
151	0xbe02ba66	-0.12766418
152	0xbe4c3252	-0.1994107
153	0xbda92473	-0.08258905
154	0x3e2ea2c1	0.17054273
155	0x3e1fec64	0.1561752
156	0x3e2d094b	0.16898076
157	0x3e15a58c	0.14613932
158	0xbdd74d4c	-0.1051279
159	0x3dc7e8d0	0.09761202
160	0x3d7c534e	0.061602883
161	0xbdad37f7	-0.0845794
162	0xbe2362ac	-0.15955609
163	0xbdef21db	-0.11676379
164	0x3dc402aa	0.09570821
165	0xbdb11bf2	-0.08647908
166	0xbdf5d36d	-0.12003217
167	0xbe0756dc	-0.13216728
168	0x3e33db4a	0.17564121
169	0x3e24a1b8	0.16077316
170	0x3cd1f26b	0.02562829
171	0x3e043a06	0.12912759
172	0x3d1be9a8	0.03806463
173	0x3dc6fef5	0.09716598
174	0xbd12cb3b	-0.035838347
175	0xbe3856fc	-0.18001932
176	0x3cdd5296	0.02701692
177	0xbe73ee4d	-0.23821373
178	0xbdac42e9	-0.084111996
179	0xbc1c5fb3	-0.009544301
180	0x3d800c23	0.06252315
181	0x3b86ee3b	0.0041177548
182	0x3d5c5609	0.053792987
183	0x3dc7970f	0.09745609
184	0xbd4e3111	-0.050339762
185	0x3e004edc	0.12530082
186	0x3e26e3e1	0.16297866
187	0x3d1737fb	0.03691862
188	0xbdfcef85	-0.12350372
189	0x3e5cf68f	0.2157843
190	0x3de329bd	0.11091945
191	0x3e0fca02	0.14041904
192	0xbddf5464	-0.10904768
193	0xbcf9581a	-0.030437518
194	0xbdcd28fc	-0.10017583
195	0xbe47180a	-0.19442764
196	0xbcd714ef	-0.0262551
197	0xbe1a6311	-0.15076853
198	0x3de85438	0.113441885
199	0xbdd56621	-0.1041987
200	0x3e30aeaa	0.17254129
201	0xbdfcd9f6	-0.1234626
202	0xbdbd54c5	-0.09244684
203	0xbdc0d7bb	-0.09416147
204	0xbe213431	-0.15742566
205	0xbd87a6bb	-0.06623598
206	0x3dbc952d	0.092081405
207	0xbe605be9	-0.21910061
208	0xbbee08c7	-0.00726423
209	0xbded8037	-0.11596721
210	0xbda9bbcb	-0.08287772
211	0x3dc826c3	0.09773018
212	0x3df5bd84	0.11999038
213	0x3d56eba3	0.052470814
214	0x3dd7dd20	0.10540223
215	0x3cb2ec47	0.021841181
216	0xbe03dbd6	-0.1287683
217	0xbdf6b7fd	-0.12046812
218	0xbe0790b0	-0.13238788
219	0x3d8569bd	0.065143086
220	0x3e15676b	0.14590232
221	0xbc81d69e	-0.015849408
222	0x3e4613d3	0.193435
223	0x3d0768e9	0.033059034
224	0xbdb590f6	-0.0886554
225	0x3bfe0c9e	0.007752969
226	0xbccb0f55	-0.024787584
227	0xbe7c104e	-0.24615595
228	0xbd5f26d8	-0.054480404
229	0x3cf96f48	0.03044857
230	0xbe415825	-0.1888128
231	0x3e0d7753	0.1381505
232	0x3e1bda55	0.15220006
233	0x3df70db4	0.120631605
234	0x3e1e66e3	0.15468936
235	0xbe02e0c9	-0.12781061
236	0xbe0b510d	-0.13605137
237	0xbde5cb87	-0.112204604
238	0x3e11ae8c	0.1422674
239	0x3dc1c607	0.09461599
240	0xbe1a6aba	-0.15079775
241	0x3e0dbfba	0.13842669
242	0xbd201592	-0.03908307
243	0xbd548a9e	-0.05189001
244	0x3e0ccce3	0.13750033
245	0x3daafd94	0.083491474
246	0x3ddfeb35	0.10933534
247	0x3d0cd69e	0.034384362
248	0x3e1e93f3	0.15486126
249	0xbd526dc4	-0.051374212
250	0xbe47f514	-0.19527084
251	0xbe70f110	-0.23529458
252	0xbdfd8ee1	-0.123807676
253	0x3e2fab1c	0.17155117
254	0x3cf33b8e	0.029691484
255	0x3e266ec9	0.16253199

sequential_1/conv2d_1/Relu;sequential_1/conv2d_1/BiasAdd;sequential_1/conv2d_1/convolution; f4 [32]
0	0x3d09d2d3	0.033648323
1	0xbba589a3	-0.005051808
2	0x3be734d9	0.0070558605
3	0x3cb42e51	0.021994742
4	0x3c1c1f3f	0.009528934
5	0xbc1cf858	-0.009580694
6	0x3d4ea571	0.050450746
7	0x3c90068f	0.017581252
8	0x3c863937	0.016384704
9	0x3c9e49a7	0.01932223
10	0x3d052111	0.032502238
11	0x3bf9f457	0.0076280045
12	0x3d13b959	0.036065433
13	0x3cb20092	0.021728788
14	0x3ce22238	0.027604207
15	0x3c06b085	0.0082207965
16	0x3bf6c396	0.00753064
17	0x3d0116cc	0.03151588
18	0x3d077465	0.033069987
19	0x3d527678	0.05138251
20	0x3c4623ee	0.012093527
21	0x3d047346	0.032336496
22	0x3d5048e3	0.05085076
23	0x3b8880c6	0.0041657416
24	0x3bd4a880	0.0064898133
25	0x3c85e102	0.016342644
26	0x3c00d82a	0.0078640375
27	0x3b8488b9	0.004044619
28	0x3b080f57	0.0020761096
29	0x3b99ce7f	0.0046938057
30	0x3c15628b	0.009117733
31	0x00000000	0.0
